…
I0512 20:56:52.170860 25202 net.cpp:275] The NetState phase (0) differed from the phase (1) specified by a rule in layer patch
I0512 20:56:52.170961 25202 net.cpp:275] The NetState phase (0) differed from the phase (1) specified by a rule in layer accuracy
I0512 20:56:52.171393 25202 net.cpp:39] Initializing net from parameters: 
name: "brca"
layers {
  top: "data"
  top: "label"
  name: "patch"
  type: IMAGE_DATA
  image_data_param {
    source: "./vic_train.txt"
    batch_size: 30
    shuffle: true
  }
  include {
    phase: TRAIN
  }
  transform_param {
    mirror: true
    crop_size: 400
  }
}
layers {
  bottom: "data"
  top: "conv1"
  name: "conv1"
  type: CONVOLUTION
  blobs_lr: 1
  blobs_lr: 2
  weight_decay: 1
  weight_decay: 0
  convolution_param {
    num_output: 80
    kernel_size: 5
    stride: 2
    weight_filler {
      type: "gaussian"
      std: 0.01
    }
    bias_filler {
      type: "constant"
      value: 0
    }
  }
}
layers {
  bottom: "conv1"
  top: "conv1"
  name: "relu1"
  type: RELU
}
layers {
  bottom: "conv1"
  top: "norm1"
  name: "norm1"
  type: LRN
  lrn_param {
    local_size: 5
    alpha: 0.0001
    beta: 0.75
  }
}
layers {
  bottom: "norm1"
  top: "pool1"
  name: "pool1"
  type: POOLING
  pooling_param {
    pool: MAX
    kernel_size: 3
    stride: 2
  }
}
layers {
  bottom: "pool1"
  top: "conv2"
  name: "conv2"
  type: CONVOLUTION
  blobs_lr: 1
  blobs_lr: 2
  weight_decay: 1
  weight_decay: 0
  convolution_param {
    num_output: 120
    kernel_size: 4
    weight_filler {
      type: "gaussian"
      std: 0.01
    }
    bias_filler {
      type: "constant"
      value: 0.1
    }
  }
}
layers {
  bottom: "conv2"
  top: "conv2"
  name: "relu2"
  type: RELU
}
layers {
  bottom: "conv2"
  top: "norm2"
  name: "norm2"
  type: LRN
  lrn_param {
    local_size: 5
    alpha: 0.0001
    beta: 0.75
  }
}
layers {
  bottom: "norm2"
  top: "pool2"
  name: "pool2"
  type: POOLING
  pooling_param {
    pool: MAX
    kernel_size: 3
    stride: 2
  }
}
layers {
  bottom: "pool2"
  top: "conv3"
  name: "conv3"
  type: CONVOLUTION
  blobs_lr: 1
  blobs_lr: 2
  weight_decay: 1
  weight_decay: 0
  convolution_param {
    num_output: 160
    kernel_size: 3
    weight_filler {
      type: "gaussian"
      std: 0.01
    }
    bias_filler {
      type: "constant"
      value: 0
    }
  }
}
layers {
  bottom: "conv3"
  top: "conv3"
  name: "relu3"
  type: RELU
}
layers {
  bottom: "conv3"
  top: "conv4"
  name: "conv4"
  type: CONVOLUTION
  blobs_lr: 1
  blobs_lr: 2
  weight_decay: 1
  weight_decay: 0
  convolution_param {
    num_output: 200
    kernel_size: 3
    weight_filler {
      type: "gaussian"
      std: 0.01
    }
    bias_filler {
      type: "constant"
      value: 0.1
    }
  }
}
layers {
  bottom: "conv4"
  top: "conv4"
  name: "relu4"
  type: RELU
}
layers {
  bottom: "conv4"
  top: "pool4"
  name: "pool4"
  type: POOLING
  pooling_param {
    pool: MAX
    kernel_size: 3
    stride: 2
  }
}
layers {
  bottom: "pool4"
  top: "conv5"
  name: "conv5"
  type: CONVOLUTION
  blobs_lr: 1
  blobs_lr: 2
  weight_decay: 1
  weight_decay: 0
  convolution_param {
    num_output: 160
    kernel_size: 3
    weight_filler {
      type: "gaussian"
      std: 0.01
    }
    bias_filler {
      type: "constant"
      value: 0
    }
  }
}
layers {
  bottom: "conv5"
  top: "conv5"
  name: "relu5"
  type: RELU
}
layers {
  bottom: "conv5"
  top: "conv6"
  name: "conv6"
  type: CONVOLUTION
  blobs_lr: 1
  blobs_lr: 2
  weight_decay: 1
  weight_decay: 0
  convolution_param {
    num_output: 200
    kernel_size: 3
    weight_filler {
      type: "gaussian"
      std: 0.01
    }
    bias_filler {
      type: "constant"
      value: 0.1
    }
  }
}
layers {
  bottom: "conv6"
  top: "conv6"
  name: "relu6"
  type: RELU
}
layers {
  bottom: "conv6"
  top: "pool6"
  name: "pool6"
  type: POOLING
  pooling_param {
    pool: MAX
    kernel_size: 3
    stride: 2
  }
}
layers {
  bottom: "pool6"
  top: "conv7"
  name: "conv7"
  type: CONVOLUTION
  blobs_lr: 1
  blobs_lr: 2
  weight_decay: 1
  weight_decay: 0
  convolution_param {
    num_output: 120
    kernel_size: 3
    weight_filler {
      type: "gaussian"
      std: 0.01
    }
    bias_filler {
      type: "constant"
      value: 0.1
    }
  }
}
layers {
  bottom: "conv7"
  top: "conv7"
  name: "relu7"
  type: RELU
}
layers {
  bottom: "conv7"
  top: "norm7"
  name: "norm7"
  type: LRN
  lrn_param {
    local_size: 5
    alpha: 0.0001
    beta: 0.75
  }
}
layers {
  bottom: "norm7"
  top: "pool7"
  name: "pool7"
  type: POOLING
  pooling_param {
    pool: MAX
    kernel_size: 3
    stride: 2
  }
}
layers {
  bottom: "pool7"
  top: "ip1"
  name: "ip1"
  type: INNER_PRODUCT
  blobs_lr: 1
  blobs_lr: 2
  weight_decay: 1
  weight_decay: 0
  inner_product_param {
    num_output: 320
    weight_filler {
      type: "gaussian"
      std: 0.01
    }
    bias_filler {
      type: "constant"
      value: 0.1
    }
  }
}
layers {
  bottom: "ip1"
  top: "ip1"
  name: "relu_ip1"
  type: RELU
}
layers {
  bottom: "ip1"
  top: "ip1"
  name: "drop1"
  type: DROPOUT
  dropout_param {
    dropout_ratio: 0.5
  }
}
layers {
  bottom: "ip1"
  top: "ip2"
  name: "ip2"
  type: INNER_PRODUCT
  blobs_lr: 1
  blobs_lr: 2
  weight_decay: 1
  weight_decay: 0
  inner_product_param {
    num_output: 320
    weight_filler {
      type: "gaussian"
      std: 0.01
    }
    bias_filler {
      type: "constant"
      value: 0.1
    }
  }
}
layers {
  bottom: "ip2"
  top: "ip2"
  name: "relu_ip2"
  type: RELU
}
layers {
  bottom: "ip2"
  top: "ip2"
  name: "drop2"
  type: DROPOUT
  dropout_param {
    dropout_ratio: 0.5
  }
}
layers {
  bottom: "ip2"
  top: "ip3"
  name: "ip3"
  type: INNER_PRODUCT
  blobs_lr: 1
  blobs_lr: 2
  weight_decay: 1
  weight_decay: 0
  inner_product_param {
    num_output: 2
    weight_filler {
      type: "gaussian"
      std: 0.01
    }
    bias_filler {
      type: "constant"
      value: 0
    }
  }
}
layers {
  bottom: "ip3"
  bottom: "label"
  top: "loss"
  name: "loss"
  type: SOFTMAX_LOSS
}
state {
  phase: TRAIN
}
I0512 20:56:52.171653 25202 net.cpp:67] Creating Layer patch
I0512 20:56:52.171706 25202 net.cpp:356] patch -> data
I0512 20:56:52.171737 25202 net.cpp:356] patch -> label
I0512 20:56:52.171762 25202 net.cpp:96] Setting up patch
I0512 20:56:52.171797 25202 image_data_layer.cpp:31] Opening file ./vic_train.txt
I0512 20:56:52.201520 25202 image_data_layer.cpp:43] Shuffling data
I0512 20:56:52.206212 25202 image_data_layer.cpp:48] A total of 34059 images.
I0512 20:56:52.216434 25202 image_data_layer.cpp:78] output data size: 30,3,400,400
I0512 20:56:52.325158 25202 net.cpp:103] Top shape: 30 3 400 400 (14400000)
I0512 20:56:52.325242 25202 net.cpp:103] Top shape: 30 1 1 1 (30)
I0512 20:56:52.325284 25202 net.cpp:67] Creating Layer conv1
I0512 20:56:52.325295 25202 net.cpp:394] conv1 <- data
I0512 20:56:52.325317 25202 net.cpp:356] conv1 -> conv1
I0512 20:56:52.325340 25202 net.cpp:96] Setting up conv1
I0512 20:56:52.325861 25202 net.cpp:103] Top shape: 30 80 198 198 (94089600)
I0512 20:56:52.325901 25202 net.cpp:67] Creating Layer relu1
I0512 20:56:52.325911 25202 net.cpp:394] relu1 <- conv1
I0512 20:56:52.325922 25202 net.cpp:345] relu1 -> conv1 (in-place)
I0512 20:56:52.325935 25202 net.cpp:96] Setting up relu1
I0512 20:56:52.325947 25202 net.cpp:103] Top shape: 30 80 198 198 (94089600)
I0512 20:56:52.325992 25202 net.cpp:67] Creating Layer norm1
I0512 20:56:52.326007 25202 net.cpp:394] norm1 <- conv1
I0512 20:56:52.326020 25202 net.cpp:356] norm1 -> norm1
I0512 20:56:52.326033 25202 net.cpp:96] Setting up norm1
I0512 20:56:52.326064 25202 net.cpp:103] Top shape: 30 80 198 198 (94089600)
I0512 20:56:52.326097 25202 net.cpp:67] Creating Layer pool1
I0512 20:56:52.326107 25202 net.cpp:394] pool1 <- norm1
I0512 20:56:52.326150 25202 net.cpp:356] pool1 -> pool1
I0512 20:56:52.326169 25202 net.cpp:96] Setting up pool1
I0512 20:56:52.326190 25202 net.cpp:103] Top shape: 30 80 99 99 (23522400)
I0512 20:56:52.326205 25202 net.cpp:67] Creating Layer conv2
I0512 20:56:52.326215 25202 net.cpp:394] conv2 <- pool1
I0512 20:56:52.326226 25202 net.cpp:356] conv2 -> conv2
I0512 20:56:52.326239 25202 net.cpp:96] Setting up conv2
I0512 20:56:52.334076 25202 net.cpp:103] Top shape: 30 120 96 96 (33177600)
I0512 20:56:52.334106 25202 net.cpp:67] Creating Layer relu2
I0512 20:56:52.334116 25202 net.cpp:394] relu2 <- conv2
I0512 20:56:52.334127 25202 net.cpp:345] relu2 -> conv2 (in-place)
I0512 20:56:52.334139 25202 net.cpp:96] Setting up relu2
I0512 20:56:52.334147 25202 net.cpp:103] Top shape: 30 120 96 96 (33177600)
I0512 20:56:52.334159 25202 net.cpp:67] Creating Layer norm2
I0512 20:56:52.334167 25202 net.cpp:394] norm2 <- conv2
I0512 20:56:52.334178 25202 net.cpp:356] norm2 -> norm2
I0512 20:56:52.334190 25202 net.cpp:96] Setting up norm2
I0512 20:56:52.334234 25202 net.cpp:103] Top shape: 30 120 96 96 (33177600)
I0512 20:56:52.334249 25202 net.cpp:67] Creating Layer pool2
I0512 20:56:52.334257 25202 net.cpp:394] pool2 <- norm2
I0512 20:56:52.334270 25202 net.cpp:356] pool2 -> pool2
I0512 20:56:52.334280 25202 net.cpp:96] Setting up pool2
I0512 20:56:52.334292 25202 net.cpp:103] Top shape: 30 120 48 48 (8294400)
I0512 20:56:52.334306 25202 net.cpp:67] Creating Layer conv3
I0512 20:56:52.334314 25202 net.cpp:394] conv3 <- pool2
I0512 20:56:52.334328 25202 net.cpp:356] conv3 -> conv3
I0512 20:56:52.334372 25202 net.cpp:96] Setting up conv3
I0512 20:56:52.343143 25202 net.cpp:103] Top shape: 30 160 46 46 (10156800)
I0512 20:56:52.343171 25202 net.cpp:67] Creating Layer relu3
I0512 20:56:52.343181 25202 net.cpp:394] relu3 <- conv3
I0512 20:56:52.343194 25202 net.cpp:345] relu3 -> conv3 (in-place)
I0512 20:56:52.343204 25202 net.cpp:96] Setting up relu3
I0512 20:56:52.343212 25202 net.cpp:103] Top shape: 30 160 46 46 (10156800)
I0512 20:56:52.343225 25202 net.cpp:67] Creating Layer conv4
I0512 20:56:52.343232 25202 net.cpp:394] conv4 <- conv3
I0512 20:56:52.343243 25202 net.cpp:356] conv4 -> conv4
I0512 20:56:52.343289 25202 net.cpp:96] Setting up conv4
I0512 20:56:52.360059 25202 net.cpp:103] Top shape: 30 200 44 44 (11616000)
I0512 20:56:52.360100 25202 net.cpp:67] Creating Layer relu4
I0512 20:56:52.360110 25202 net.cpp:394] relu4 <- conv4
I0512 20:56:52.360122 25202 net.cpp:345] relu4 -> conv4 (in-place)
I0512 20:56:52.360137 25202 net.cpp:96] Setting up relu4
I0512 20:56:52.360146 25202 net.cpp:103] Top shape: 30 200 44 44 (11616000)
I0512 20:56:52.360159 25202 net.cpp:67] Creating Layer pool4
I0512 20:56:52.360168 25202 net.cpp:394] pool4 <- conv4
I0512 20:56:52.360180 25202 net.cpp:356] pool4 -> pool4
I0512 20:56:52.360191 25202 net.cpp:96] Setting up pool4
I0512 20:56:52.360201 25202 net.cpp:103] Top shape: 30 200 22 22 (2904000)
I0512 20:56:52.360214 25202 net.cpp:67] Creating Layer conv5
I0512 20:56:52.360225 25202 net.cpp:394] conv5 <- pool4
I0512 20:56:52.360237 25202 net.cpp:356] conv5 -> conv5
I0512 20:56:52.360250 25202 net.cpp:96] Setting up conv5
I0512 20:56:52.375402 25202 net.cpp:103] Top shape: 30 160 20 20 (1920000)
I0512 20:56:52.375435 25202 net.cpp:67] Creating Layer relu5
I0512 20:56:52.375445 25202 net.cpp:394] relu5 <- conv5
I0512 20:56:52.375458 25202 net.cpp:345] relu5 -> conv5 (in-place)
I0512 20:56:52.375470 25202 net.cpp:96] Setting up relu5
I0512 20:56:52.375478 25202 net.cpp:103] Top shape: 30 160 20 20 (1920000)
I0512 20:56:52.375527 25202 net.cpp:67] Creating Layer conv6
I0512 20:56:52.375537 25202 net.cpp:394] conv6 <- conv5
I0512 20:56:52.375550 25202 net.cpp:356] conv6 -> conv6
I0512 20:56:52.375563 25202 net.cpp:96] Setting up conv6
I0512 20:56:52.393357 25202 net.cpp:103] Top shape: 30 200 18 18 (1944000)
I0512 20:56:52.393393 25202 net.cpp:67] Creating Layer relu6
I0512 20:56:52.393404 25202 net.cpp:394] relu6 <- conv6
I0512 20:56:52.393460 25202 net.cpp:345] relu6 -> conv6 (in-place)
I0512 20:56:52.393474 25202 net.cpp:96] Setting up relu6
I0512 20:56:52.393482 25202 net.cpp:103] Top shape: 30 200 18 18 (1944000)
I0512 20:56:52.393496 25202 net.cpp:67] Creating Layer pool6
I0512 20:56:52.393503 25202 net.cpp:394] pool6 <- conv6
I0512 20:56:52.393514 25202 net.cpp:356] pool6 -> pool6
I0512 20:56:52.393527 25202 net.cpp:96] Setting up pool6
I0512 20:56:52.393535 25202 net.cpp:103] Top shape: 30 200 9 9 (486000)
I0512 20:56:52.393548 25202 net.cpp:67] Creating Layer conv7
I0512 20:56:52.393558 25202 net.cpp:394] conv7 <- pool6
I0512 20:56:52.393568 25202 net.cpp:356] conv7 -> conv7
I0512 20:56:52.393610 25202 net.cpp:96] Setting up conv7
I0512 20:56:52.404722 25202 net.cpp:103] Top shape: 30 120 7 7 (176400)
I0512 20:56:52.404780 25202 net.cpp:67] Creating Layer relu7
I0512 20:56:52.404794 25202 net.cpp:394] relu7 <- conv7
I0512 20:56:52.404806 25202 net.cpp:345] relu7 -> conv7 (in-place)
I0512 20:56:52.404817 25202 net.cpp:96] Setting up relu7
I0512 20:56:52.404825 25202 net.cpp:103] Top shape: 30 120 7 7 (176400)
I0512 20:56:52.404837 25202 net.cpp:67] Creating Layer norm7
I0512 20:56:52.404845 25202 net.cpp:394] norm7 <- conv7
I0512 20:56:52.404856 25202 net.cpp:356] norm7 -> norm7
I0512 20:56:52.404868 25202 net.cpp:96] Setting up norm7
I0512 20:56:52.404877 25202 net.cpp:103] Top shape: 30 120 7 7 (176400)
I0512 20:56:52.404887 25202 net.cpp:67] Creating Layer pool7
I0512 20:56:52.404896 25202 net.cpp:394] pool7 <- norm7
I0512 20:56:52.404906 25202 net.cpp:356] pool7 -> pool7
I0512 20:56:52.404919 25202 net.cpp:96] Setting up pool7
I0512 20:56:52.404960 25202 net.cpp:103] Top shape: 30 120 3 3 (32400)
I0512 20:56:52.404979 25202 net.cpp:67] Creating Layer ip1
I0512 20:56:52.404989 25202 net.cpp:394] ip1 <- pool7
I0512 20:56:52.405001 25202 net.cpp:356] ip1 -> ip1
I0512 20:56:52.405015 25202 net.cpp:96] Setting up ip1
I0512 20:56:52.425868 25202 net.cpp:103] Top shape: 30 320 1 1 (9600)
I0512 20:56:52.425899 25202 net.cpp:67] Creating Layer relu_ip1
I0512 20:56:52.425909 25202 net.cpp:394] relu_ip1 <- ip1
I0512 20:56:52.425927 25202 net.cpp:345] relu_ip1 -> ip1 (in-place)
I0512 20:56:52.425951 25202 net.cpp:96] Setting up relu_ip1
I0512 20:56:52.425963 25202 net.cpp:103] Top shape: 30 320 1 1 (9600)
I0512 20:56:52.425976 25202 net.cpp:67] Creating Layer drop1
I0512 20:56:52.425984 25202 net.cpp:394] drop1 <- ip1
I0512 20:56:52.425994 25202 net.cpp:345] drop1 -> ip1 (in-place)
I0512 20:56:52.426007 25202 net.cpp:96] Setting up drop1
I0512 20:56:52.426017 25202 net.cpp:103] Top shape: 30 320 1 1 (9600)
I0512 20:56:52.426029 25202 net.cpp:67] Creating Layer ip2
I0512 20:56:52.426038 25202 net.cpp:394] ip2 <- ip1
I0512 20:56:52.426048 25202 net.cpp:356] ip2 -> ip2
I0512 20:56:52.426061 25202 net.cpp:96] Setting up ip2
I0512 20:56:52.430897 25202 net.cpp:103] Top shape: 30 320 1 1 (9600)
I0512 20:56:52.430929 25202 net.cpp:67] Creating Layer relu_ip2
I0512 20:56:52.430938 25202 net.cpp:394] relu_ip2 <- ip2
I0512 20:56:52.430949 25202 net.cpp:345] relu_ip2 -> ip2 (in-place)
I0512 20:56:52.430960 25202 net.cpp:96] Setting up relu_ip2
I0512 20:56:52.430968 25202 net.cpp:103] Top shape: 30 320 1 1 (9600)
I0512 20:56:52.430979 25202 net.cpp:67] Creating Layer drop2
I0512 20:56:52.430986 25202 net.cpp:394] drop2 <- ip2
I0512 20:56:52.430996 25202 net.cpp:345] drop2 -> ip2 (in-place)
I0512 20:56:52.431009 25202 net.cpp:96] Setting up drop2
I0512 20:56:52.431025 25202 net.cpp:103] Top shape: 30 320 1 1 (9600)
I0512 20:56:52.431048 25202 net.cpp:67] Creating Layer ip3
I0512 20:56:52.431059 25202 net.cpp:394] ip3 <- ip2
I0512 20:56:52.431071 25202 net.cpp:356] ip3 -> ip3
I0512 20:56:52.431084 25202 net.cpp:96] Setting up ip3
I0512 20:56:52.431128 25202 net.cpp:103] Top shape: 30 2 1 1 (60)
I0512 20:56:52.431144 25202 net.cpp:67] Creating Layer loss
I0512 20:56:52.431152 25202 net.cpp:394] loss <- ip3
I0512 20:56:52.431166 25202 net.cpp:394] loss <- label
I0512 20:56:52.431205 25202 net.cpp:356] loss -> loss
I0512 20:56:52.431232 25202 net.cpp:96] Setting up loss
I0512 20:56:52.431252 25202 net.cpp:103] Top shape: 1 1 1 1 (1)
I0512 20:56:52.431262 25202 net.cpp:109]     with loss weight 1
I0512 20:56:52.431298 25202 net.cpp:170] loss needs backward computation.
I0512 20:56:52.431306 25202 net.cpp:170] ip3 needs backward computation.
I0512 20:56:52.431316 25202 net.cpp:170] drop2 needs backward computation.
I0512 20:56:52.431330 25202 net.cpp:170] relu_ip2 needs backward computation.
I0512 20:56:52.431344 25202 net.cpp:170] ip2 needs backward computation.
…
I0512 20:56:52.431622 25202 net.cpp:220] Memory required for data: 1933205164
I0512 20:56:52.432961 25202 solver.cpp:151] Creating test net (#0) specified by net file: ./brca_train_test.prototxt
I0512 20:56:52.433033 25202 net.cpp:275] The NetState phase (1) differed from the phase (0) specified by a rule in layer patch
I0512 20:56:52.433413 25202 net.cpp:39] Initializing net from parameters: 
name: "brca"
layers {
  top: "data"
  top: "label"
  name: "patch"
  type: IMAGE_DATA
  image_data_param {
    source: "./vic_test.txt"
    batch_size: 30
    shuffle: true
  }
  include {
    phase: TEST
  }
  transform_param {
    mirror: false
    crop_size: 400
  }
}
layers {
  bottom: "data"
  top: "conv1"
  name: "conv1"
  type: CONVOLUTION
  blobs_lr: 1
  blobs_lr: 2
  weight_decay: 1
  weight_decay: 0
  convolution_param {
    num_output: 80
    kernel_size: 5
    stride: 2
    weight_filler {
      type: "gaussian"
      std: 0.01
    }
    bias_filler {
      type: "constant"
      value: 0
    }
  }
}
layers {
  bottom: "conv1"
  top: "conv1"
  name: "relu1"
  type: RELU
}
layers {
  bottom: "conv1"
  top: "norm1"
  name: "norm1"
  type: LRN
  lrn_param {
    local_size: 5
    alpha: 0.0001
    beta: 0.75
  }
}
layers {
  bottom: "norm1"
  top: "pool1"
  name: "pool1"
  type: POOLING
  pooling_param {
    pool: MAX
    kernel_size: 3
    stride: 2
  }
}
layers {
  bottom: "pool1"
  top: "conv2"
  name: "conv2"
  type: CONVOLUTION
  blobs_lr: 1
  blobs_lr: 2
  weight_decay: 1
  weight_decay: 0
  convolution_param {
    num_output: 120
    kernel_size: 4
    weight_filler {
      type: "gaussian"
      std: 0.01
    }
    bias_filler {
      type: "constant"
      value: 0.1
    }
  }
}
layers {
  bottom: "conv2"
  top: "conv2"
  name: "relu2"
  type: RELU
}
layers {
  bottom: "conv2"
  top: "norm2"
  name: "norm2"
  type: LRN
  lrn_param {
    local_size: 5
    alpha: 0.0001
    beta: 0.75
  }
}
layers {
  bottom: "norm2"
  top: "pool2"
  name: "pool2"
  type: POOLING
  pooling_param {
    pool: MAX
    kernel_size: 3
    stride: 2
  }
}
layers {
  bottom: "pool2"
  top: "conv3"
  name: "conv3"
  type: CONVOLUTION
  blobs_lr: 1
  blobs_lr: 2
  weight_decay: 1
  weight_decay: 0
  convolution_param {
    num_output: 160
    kernel_size: 3
    weight_filler {
      type: "gaussian"
      std: 0.01
    }
    bias_filler {
      type: "constant"
      value: 0
    }
  }
}
layers {
  bottom: "conv3"
  top: "conv3"
  name: "relu3"
  type: RELU
}
layers {
  bottom: "conv3"
  top: "conv4"
  name: "conv4"
  type: CONVOLUTION
  blobs_lr: 1
  blobs_lr: 2
  weight_decay: 1
  weight_decay: 0
  convolution_param {
    num_output: 200
    kernel_size: 3
    weight_filler {
      type: "gaussian"
      std: 0.01
    }
    bias_filler {
      type: "constant"
      value: 0.1
    }
  }
}
layers {
  bottom: "conv4"
  top: "conv4"
  name: "relu4"
  type: RELU
}
layers {
  bottom: "conv4"
  top: "pool4"
  name: "pool4"
  type: POOLING
  pooling_param {
    pool: MAX
    kernel_size: 3
    stride: 2
  }
}
layers {
  bottom: "pool4"
  top: "conv5"
  name: "conv5"
  type: CONVOLUTION
  blobs_lr: 1
  blobs_lr: 2
  weight_decay: 1
  weight_decay: 0
  convolution_param {
    num_output: 160
    kernel_size: 3
    weight_filler {
      type: "gaussian"
      std: 0.01
    }
    bias_filler {
      type: "constant"
      value: 0
    }
  }
}
layers {
  bottom: "conv5"
  top: "conv5"
  name: "relu5"
  type: RELU
}
layers {
  bottom: "conv5"
  top: "conv6"
  name: "conv6"
  type: CONVOLUTION
  blobs_lr: 1
  blobs_lr: 2
  weight_decay: 1
  weight_decay: 0
  convolution_param {
    num_output: 200
    kernel_size: 3
    weight_filler {
      type: "gaussian"
      std: 0.01
    }
    bias_filler {
      type: "constant"
      value: 0.1
    }
  }
}
layers {
  bottom: "conv6"
  top: "conv6"
  name: "relu6"
  type: RELU
}
layers {
  bottom: "conv6"
  top: "pool6"
  name: "pool6"
  type: POOLING
  pooling_param {
    pool: MAX
    kernel_size: 3
    stride: 2
  }
}
layers {
  bottom: "pool6"
  top: "conv7"
  name: "conv7"
  type: CONVOLUTION
  blobs_lr: 1
  blobs_lr: 2
  weight_decay: 1
  weight_decay: 0
  convolution_param {
    num_output: 120
    kernel_size: 3
    weight_filler {
      type: "gaussian"
      std: 0.01
    }
    bias_filler {
      type: "constant"
      value: 0.1
    }
  }
}
layers {
  bottom: "conv7"
  top: "conv7"
  name: "relu7"
  type: RELU
}
layers {
  bottom: "conv7"
  top: "norm7"
  name: "norm7"
  type: LRN
  lrn_param {
    local_size: 5
    alpha: 0.0001
    beta: 0.75
  }
}
layers {
  bottom: "norm7"
  top: "pool7"
  name: "pool7"
  type: POOLING
  pooling_param {
    pool: MAX
    kernel_size: 3
    stride: 2
  }
}
layers {
  bottom: "pool7"
  top: "ip1"
  name: "ip1"
  type: INNER_PRODUCT
  blobs_lr: 1
  blobs_lr: 2
  weight_decay: 1
  weight_decay: 0
  inner_product_param {
    num_output: 320
    weight_filler {
      type: "gaussian"
      std: 0.01
    }
    bias_filler {
      type: "constant"
      value: 0.1
    }
  }
}
layers {
  bottom: "ip1"
  top: "ip1"
  name: "relu_ip1"
  type: RELU
}
layers {
  bottom: "ip1"
  top: "ip1"
  name: "drop1"
  type: DROPOUT
  dropout_param {
    dropout_ratio: 0.5
  }
}
layers {
  bottom: "ip1"
  top: "ip2"
  name: "ip2"
  type: INNER_PRODUCT
  blobs_lr: 1
  blobs_lr: 2
  weight_decay: 1
  weight_decay: 0
  inner_product_param {
    num_output: 320
    weight_filler {
      type: "gaussian"
      std: 0.01
    }
    bias_filler {
      type: "constant"
      value: 0.1
    }
  }
}
layers {
  bottom: "ip2"
  top: "ip2"
  name: "relu_ip2"
  type: RELU
}
layers {
  bottom: "ip2"
  top: "ip2"
  name: "drop2"
  type: DROPOUT
  dropout_param {
    dropout_ratio: 0.5
  }
}
layers {
  bottom: "ip2"
  top: "ip3"
  name: "ip3"
  type: INNER_PRODUCT
  blobs_lr: 1
  blobs_lr: 2
  weight_decay: 1
  weight_decay: 0
  inner_product_param {
    num_output: 2
    weight_filler {
      type: "gaussian"
      std: 0.01
    }
    bias_filler {
      type: "constant"
      value: 0
    }
  }
}
layers {
  bottom: "ip3"
  bottom: "label"
  top: "accuracy"
  name: "accuracy"
  type: ACCURACY
  include {
    phase: TEST
  }
}
layers {
  bottom: "ip3"
  bottom: "label"
  top: "loss"
  name: "loss"
  type: SOFTMAX_LOSS
}
state {
  phase: TEST
}
I0512 20:56:52.433658 25202 net.cpp:67] Creating Layer patch
I0512 20:56:52.433676 25202 net.cpp:356] patch -> data
I0512 20:56:52.433692 25202 net.cpp:356] patch -> label
I0512 20:56:52.433706 25202 net.cpp:96] Setting up patch
I0512 20:56:52.433714 25202 image_data_layer.cpp:31] Opening file ./vic_test.txt
I0512 20:56:52.460192 25202 image_data_layer.cpp:43] Shuffling data
I0512 20:56:52.463691 25202 image_data_layer.cpp:48] A total of 34280 images.
I0512 20:56:52.472671 25202 image_data_layer.cpp:78] output data size: 30,3,400,400
I0512 20:56:52.509317 25202 net.cpp:103] Top shape: 30 3 400 400 (14400000)
I0512 20:56:52.509364 25202 net.cpp:103] Top shape: 30 1 1 1 (30)
I0512 20:56:52.509389 25202 net.cpp:67] Creating Layer label_patch_1_split
I0512 20:56:52.509408 25202 net.cpp:394] label_patch_1_split <- label
I0512 20:56:52.509433 25202 net.cpp:356] label_patch_1_split -> label_patch_1_split_0
I0512 20:56:52.509455 25202 net.cpp:356] label_patch_1_split -> label_patch_1_split_1
I0512 20:56:52.509467 25202 net.cpp:96] Setting up label_patch_1_split
I0512 20:56:52.509488 25202 net.cpp:103] Top shape: 30 1 1 1 (30)
I0512 20:56:52.509497 25202 net.cpp:103] Top shape: 30 1 1 1 (30)
I0512 20:56:52.509513 25202 net.cpp:67] Creating Layer conv1
I0512 20:56:52.509522 25202 net.cpp:394] conv1 <- data
I0512 20:56:52.509533 25202 net.cpp:356] conv1 -> conv1
I0512 20:56:52.509548 25202 net.cpp:96] Setting up conv1
I0512 20:56:52.509902 25202 net.cpp:103] Top shape: 30 80 198 198 (94089600)
I0512 20:56:52.509943 25202 net.cpp:67] Creating Layer relu1
I0512 20:56:52.509956 25202 net.cpp:394] relu1 <- conv1
I0512 20:56:52.509968 25202 net.cpp:345] relu1 -> conv1 (in-place)
I0512 20:56:52.509979 25202 net.cpp:96] Setting up relu1
I0512 20:56:52.509989 25202 net.cpp:103] Top shape: 30 80 198 198 (94089600)
I0512 20:56:52.510002 25202 net.cpp:67] Creating Layer norm1
I0512 20:56:52.510010 25202 net.cpp:394] norm1 <- conv1
I0512 20:56:52.510021 25202 net.cpp:356] norm1 -> norm1
I0512 20:56:52.510032 25202 net.cpp:96] Setting up norm1
I0512 20:56:52.510042 25202 net.cpp:103] Top shape: 30 80 198 198 (94089600)
I0512 20:56:52.510056 25202 net.cpp:67] Creating Layer pool1
I0512 20:56:52.510072 25202 net.cpp:394] pool1 <- norm1
I0512 20:56:52.510094 25202 net.cpp:356] pool1 -> pool1
I0512 20:56:52.510110 25202 net.cpp:96] Setting up pool1
I0512 20:56:52.510121 25202 net.cpp:103] Top shape: 30 80 99 99 (23522400)
I0512 20:56:52.510133 25202 net.cpp:67] Creating Layer conv2
I0512 20:56:52.510141 25202 net.cpp:394] conv2 <- pool1
I0512 20:56:52.510154 25202 net.cpp:356] conv2 -> conv2
I0512 20:56:52.510164 25202 net.cpp:96] Setting up conv2
I0512 20:56:52.517120 25202 net.cpp:103] Top shape: 30 120 96 96 (33177600)
I0512 20:56:52.517150 25202 net.cpp:67] Creating Layer relu2
I0512 20:56:52.517159 25202 net.cpp:394] relu2 <- conv2
I0512 20:56:52.517171 25202 net.cpp:345] relu2 -> conv2 (in-place)
I0512 20:56:52.517182 25202 net.cpp:96] Setting up relu2
I0512 20:56:52.517190 25202 net.cpp:103] Top shape: 30 120 96 96 (33177600)
I0512 20:56:52.517210 25202 net.cpp:67] Creating Layer norm2
I0512 20:56:52.517226 25202 net.cpp:394] norm2 <- conv2
I0512 20:56:52.517266 25202 net.cpp:356] norm2 -> norm2
I0512 20:56:52.517282 25202 net.cpp:96] Setting up norm2
I0512 20:56:52.517308 25202 net.cpp:103] Top shape: 30 120 96 96 (33177600)
I0512 20:56:52.517320 25202 net.cpp:67] Creating Layer pool2
I0512 20:56:52.517329 25202 net.cpp:394] pool2 <- norm2
I0512 20:56:52.517339 25202 net.cpp:356] pool2 -> pool2
I0512 20:56:52.517351 25202 net.cpp:96] Setting up pool2
I0512 20:56:52.517360 25202 net.cpp:103] Top shape: 30 120 48 48 (8294400)
I0512 20:56:52.517374 25202 net.cpp:67] Creating Layer conv3
I0512 20:56:52.517381 25202 net.cpp:394] conv3 <- pool2
I0512 20:56:52.517393 25202 net.cpp:356] conv3 -> conv3
I0512 20:56:52.517416 25202 net.cpp:96] Setting up conv3
I0512 20:56:52.525214 25202 net.cpp:103] Top shape: 30 160 46 46 (10156800)
I0512 20:56:52.525243 25202 net.cpp:67] Creating Layer relu3
I0512 20:56:52.525261 25202 net.cpp:394] relu3 <- conv3
I0512 20:56:52.525284 25202 net.cpp:345] relu3 -> conv3 (in-place)
I0512 20:56:52.525300 25202 net.cpp:96] Setting up relu3
I0512 20:56:52.525308 25202 net.cpp:103] Top shape: 30 160 46 46 (10156800)
I0512 20:56:52.525321 25202 net.cpp:67] Creating Layer conv4
I0512 20:56:52.525329 25202 net.cpp:394] conv4 <- conv3
I0512 20:56:52.525341 25202 net.cpp:356] conv4 -> conv4
I0512 20:56:52.525353 25202 net.cpp:96] Setting up conv4
I0512 20:56:52.538389 25202 net.cpp:103] Top shape: 30 200 44 44 (11616000)
I0512 20:56:52.538415 25202 net.cpp:67] Creating Layer relu4
I0512 20:56:52.538424 25202 net.cpp:394] relu4 <- conv4
I0512 20:56:52.538441 25202 net.cpp:345] relu4 -> conv4 (in-place)
I0512 20:56:52.538465 25202 net.cpp:96] Setting up relu4
I0512 20:56:52.538478 25202 net.cpp:103] Top shape: 30 200 44 44 (11616000)
I0512 20:56:52.538491 25202 net.cpp:67] Creating Layer pool4
I0512 20:56:52.538498 25202 net.cpp:394] pool4 <- conv4
I0512 20:56:52.538509 25202 net.cpp:356] pool4 -> pool4
I0512 20:56:52.538522 25202 net.cpp:96] Setting up pool4
I0512 20:56:52.538532 25202 net.cpp:103] Top shape: 30 200 22 22 (2904000)
I0512 20:56:52.538543 25202 net.cpp:67] Creating Layer conv5
I0512 20:56:52.538552 25202 net.cpp:394] conv5 <- pool4
I0512 20:56:52.538563 25202 net.cpp:356] conv5 -> conv5
I0512 20:56:52.538574 25202 net.cpp:96] Setting up conv5
I0512 20:56:52.552045 25202 net.cpp:103] Top shape: 30 160 20 20 (1920000)
I0512 20:56:52.552086 25202 net.cpp:67] Creating Layer relu5
I0512 20:56:52.552105 25202 net.cpp:394] relu5 <- conv5
I0512 20:56:52.552119 25202 net.cpp:345] relu5 -> conv5 (in-place)
I0512 20:56:52.552131 25202 net.cpp:96] Setting up relu5
I0512 20:56:52.552140 25202 net.cpp:103] Top shape: 30 160 20 20 (1920000)
I0512 20:56:52.552152 25202 net.cpp:67] Creating Layer conv6
I0512 20:56:52.552160 25202 net.cpp:394] conv6 <- conv5
I0512 20:56:52.552172 25202 net.cpp:356] conv6 -> conv6
I0512 20:56:52.552184 25202 net.cpp:96] Setting up conv6
I0512 20:56:52.565659 25202 net.cpp:103] Top shape: 30 200 18 18 (1944000)
I0512 20:56:52.565692 25202 net.cpp:67] Creating Layer relu6
I0512 20:56:52.565712 25202 net.cpp:394] relu6 <- conv6
I0512 20:56:52.565729 25202 net.cpp:345] relu6 -> conv6 (in-place)
I0512 20:56:52.565742 25202 net.cpp:96] Setting up relu6
I0512 20:56:52.565749 25202 net.cpp:103] Top shape: 30 200 18 18 (1944000)
I0512 20:56:52.565760 25202 net.cpp:67] Creating Layer pool6
I0512 20:56:52.565768 25202 net.cpp:394] pool6 <- conv6
I0512 20:56:52.565778 25202 net.cpp:356] pool6 -> pool6
I0512 20:56:52.565789 25202 net.cpp:96] Setting up pool6
I0512 20:56:52.565799 25202 net.cpp:103] Top shape: 30 200 9 9 (486000)
I0512 20:56:52.565812 25202 net.cpp:67] Creating Layer conv7
I0512 20:56:52.565820 25202 net.cpp:394] conv7 <- pool6
I0512 20:56:52.565831 25202 net.cpp:356] conv7 -> conv7
I0512 20:56:52.565856 25202 net.cpp:96] Setting up conv7
I0512 20:56:52.575997 25202 net.cpp:103] Top shape: 30 120 7 7 (176400)
I0512 20:56:52.576037 25202 net.cpp:67] Creating Layer relu7
I0512 20:56:52.576052 25202 net.cpp:394] relu7 <- conv7
I0512 20:56:52.576064 25202 net.cpp:345] relu7 -> conv7 (in-place)
I0512 20:56:52.576076 25202 net.cpp:96] Setting up relu7
I0512 20:56:52.576092 25202 net.cpp:103] Top shape: 30 120 7 7 (176400)
I0512 20:56:52.576113 25202 net.cpp:67] Creating Layer norm7
I0512 20:56:52.576122 25202 net.cpp:394] norm7 <- conv7
I0512 20:56:52.576133 25202 net.cpp:356] norm7 -> norm7
I0512 20:56:52.576144 25202 net.cpp:96] Setting up norm7
I0512 20:56:52.576153 25202 net.cpp:103] Top shape: 30 120 7 7 (176400)
I0512 20:56:52.576171 25202 net.cpp:67] Creating Layer pool7
I0512 20:56:52.576189 25202 net.cpp:394] pool7 <- norm7
I0512 20:56:52.576208 25202 net.cpp:356] pool7 -> pool7
I0512 20:56:52.576221 25202 net.cpp:96] Setting up pool7
I0512 20:56:52.576231 25202 net.cpp:103] Top shape: 30 120 3 3 (32400)
I0512 20:56:52.576243 25202 net.cpp:67] Creating Layer ip1
I0512 20:56:52.576251 25202 net.cpp:394] ip1 <- pool7
I0512 20:56:52.576262 25202 net.cpp:356] ip1 -> ip1
I0512 20:56:52.576275 25202 net.cpp:96] Setting up ip1
I0512 20:56:52.592434 25202 net.cpp:103] Top shape: 30 320 1 1 (9600)
I0512 20:56:52.592463 25202 net.cpp:67] Creating Layer relu_ip1
I0512 20:56:52.592480 25202 net.cpp:394] relu_ip1 <- ip1
I0512 20:56:52.592502 25202 net.cpp:345] relu_ip1 -> ip1 (in-place)
I0512 20:56:52.592517 25202 net.cpp:96] Setting up relu_ip1
I0512 20:56:52.592525 25202 net.cpp:103] Top shape: 30 320 1 1 (9600)
I0512 20:56:52.592535 25202 net.cpp:67] Creating Layer drop1
I0512 20:56:52.592543 25202 net.cpp:394] drop1 <- ip1
I0512 20:56:52.592553 25202 net.cpp:345] drop1 -> ip1 (in-place)
I0512 20:56:52.592564 25202 net.cpp:96] Setting up drop1
I0512 20:56:52.592573 25202 net.cpp:103] Top shape: 30 320 1 1 (9600)
I0512 20:56:52.592584 25202 net.cpp:67] Creating Layer ip2
I0512 20:56:52.592592 25202 net.cpp:394] ip2 <- ip1
I0512 20:56:52.592602 25202 net.cpp:356] ip2 -> ip2
I0512 20:56:52.592615 25202 net.cpp:96] Setting up ip2
I0512 20:56:52.597435 25202 net.cpp:103] Top shape: 30 320 1 1 (9600)
I0512 20:56:52.597468 25202 net.cpp:67] Creating Layer relu_ip2
I0512 20:56:52.597486 25202 net.cpp:394] relu_ip2 <- ip2
I0512 20:56:52.597506 25202 net.cpp:345] relu_ip2 -> ip2 (in-place)
I0512 20:56:52.597518 25202 net.cpp:96] Setting up relu_ip2
I0512 20:56:52.597527 25202 net.cpp:103] Top shape: 30 320 1 1 (9600)
I0512 20:56:52.597537 25202 net.cpp:67] Creating Layer drop2
I0512 20:56:52.597544 25202 net.cpp:394] drop2 <- ip2
I0512 20:56:52.597555 25202 net.cpp:345] drop2 -> ip2 (in-place)
I0512 20:56:52.597564 25202 net.cpp:96] Setting up drop2
I0512 20:56:52.597573 25202 net.cpp:103] Top shape: 30 320 1 1 (9600)
I0512 20:56:52.597584 25202 net.cpp:67] Creating Layer ip3
I0512 20:56:52.597592 25202 net.cpp:394] ip3 <- ip2
I0512 20:56:52.597602 25202 net.cpp:356] ip3 -> ip3
I0512 20:56:52.597615 25202 net.cpp:96] Setting up ip3
I0512 20:56:52.597676 25202 net.cpp:103] Top shape: 30 2 1 1 (60)
I0512 20:56:52.597697 25202 net.cpp:67] Creating Layer ip3_ip3_0_split
I0512 20:56:52.597705 25202 net.cpp:394] ip3_ip3_0_split <- ip3
I0512 20:56:52.597717 25202 net.cpp:356] ip3_ip3_0_split -> ip3_ip3_0_split_0
I0512 20:56:52.597729 25202 net.cpp:356] ip3_ip3_0_split -> ip3_ip3_0_split_1
I0512 20:56:52.597741 25202 net.cpp:96] Setting up ip3_ip3_0_split
I0512 20:56:52.597750 25202 net.cpp:103] Top shape: 30 2 1 1 (60)
I0512 20:56:52.597759 25202 net.cpp:103] Top shape: 30 2 1 1 (60)
I0512 20:56:52.597771 25202 net.cpp:67] Creating Layer accuracy
I0512 20:56:52.597780 25202 net.cpp:394] accuracy <- ip3_ip3_0_split_0
I0512 20:56:52.597790 25202 net.cpp:394] accuracy <- label_patch_1_split_0
I0512 20:56:52.597801 25202 net.cpp:356] accuracy -> accuracy
I0512 20:56:52.597816 25202 net.cpp:96] Setting up accuracy
I0512 20:56:52.597841 25202 net.cpp:103] Top shape: 1 1 1 1 (1)
I0512 20:56:52.597861 25202 net.cpp:67] Creating Layer loss
I0512 20:56:52.597870 25202 net.cpp:394] loss <- ip3_ip3_0_split_1
I0512 20:56:52.597880 25202 net.cpp:394] loss <- label_patch_1_split_1
I0512 20:56:52.597890 25202 net.cpp:356] loss -> loss
I0512 20:56:52.597903 25202 net.cpp:96] Setting up loss
I0512 20:56:52.597915 25202 net.cpp:103] Top shape: 1 1 1 1 (1)
I0512 20:56:52.597923 25202 net.cpp:109]     with loss weight 1
I0512 20:56:52.597950 25202 net.cpp:170] loss needs backward computation.
I0512 20:56:52.597970 25202 net.cpp:172] accuracy does not need backward computation.
I0512 20:56:52.597980 25202 net.cpp:170] ip3_ip3_0_split needs backward computation.
I0512 20:56:52.597988 25202 net.cpp:170] ip3 needs backward computation.
I0512 20:56:52.598003 25202 net.cpp:170] drop2 needs backward computation.
…
