…
I0513 10:45:04.620874 11914 net.cpp:275] The NetState phase (0) differed from the phase (1) specified by a rule in layer patch
I0513 10:45:04.620924 11914 net.cpp:275] The NetState phase (0) differed from the phase (1) specified by a rule in layer accuracy
I0513 10:45:04.621233 11914 net.cpp:39] Initializing net from parameters: 
name: "brca"
layers {
  top: "data"
  top: "label"
  name: "patch"
  type: IMAGE_DATA
  image_data_param {
    source: "./vic_train.txt"
    batch_size: 30
    shuffle: true
  }
  include {
    phase: TRAIN
  }
  transform_param {
    mirror: true
    crop_size: 400
  }
}
layers {
  bottom: "data"
  top: "conv1"
  name: "conv1"
  type: CONVOLUTION
  blobs_lr: 1
  blobs_lr: 2
  weight_decay: 1
  weight_decay: 0
  convolution_param {
    num_output: 80
    kernel_size: 5
    stride: 2
    weight_filler {
      type: "gaussian"
      std: 0.01
    }
    bias_filler {
      type: "constant"
      value: 0
    }
  }
}
layers {
  bottom: "conv1"
  top: "conv1"
  name: "relu1"
  type: RELU
}
layers {
  bottom: "conv1"
  top: "norm1"
  name: "norm1"
  type: LRN
  lrn_param {
    local_size: 5
    alpha: 0.0001
    beta: 0.75
  }
}
layers {
  bottom: "norm1"
  top: "pool1"
  name: "pool1"
  type: POOLING
  pooling_param {
    pool: MAX
    kernel_size: 3
    stride: 2
  }
}
layers {
  bottom: "pool1"
  top: "conv2"
  name: "conv2"
  type: CONVOLUTION
  blobs_lr: 1
  blobs_lr: 2
  weight_decay: 1
  weight_decay: 0
  convolution_param {
    num_output: 120
    kernel_size: 4
    weight_filler {
      type: "gaussian"
      std: 0.01
    }
    bias_filler {
      type: "constant"
      value: 0.1
    }
  }
}
layers {
  bottom: "conv2"
  top: "conv2"
  name: "relu2"
  type: RELU
}
layers {
  bottom: "conv2"
  top: "norm2"
  name: "norm2"
  type: LRN
  lrn_param {
    local_size: 5
    alpha: 0.0001
    beta: 0.75
  }
}
layers {
  bottom: "norm2"
  top: "pool2"
  name: "pool2"
  type: POOLING
  pooling_param {
    pool: MAX
    kernel_size: 3
    stride: 2
  }
}
layers {
  bottom: "pool2"
  top: "conv3"
  name: "conv3"
  type: CONVOLUTION
  blobs_lr: 1
  blobs_lr: 2
  weight_decay: 1
  weight_decay: 0
  convolution_param {
    num_output: 160
    kernel_size: 3
    weight_filler {
      type: "gaussian"
      std: 0.01
    }
    bias_filler {
      type: "constant"
      value: 0
    }
  }
}
layers {
  bottom: "conv3"
  top: "conv3"
  name: "relu3"
  type: RELU
}
layers {
  bottom: "conv3"
  top: "conv4"
  name: "conv4"
  type: CONVOLUTION
  blobs_lr: 1
  blobs_lr: 2
  weight_decay: 1
  weight_decay: 0
  convolution_param {
    num_output: 200
    kernel_size: 3
    weight_filler {
      type: "gaussian"
      std: 0.01
    }
    bias_filler {
      type: "constant"
      value: 0.1
    }
  }
}
layers {
  bottom: "conv4"
  top: "conv4"
  name: "relu4"
  type: RELU
}
layers {
  bottom: "conv4"
  top: "pool4"
  name: "pool4"
  type: POOLING
  pooling_param {
    pool: MAX
    kernel_size: 3
    stride: 2
  }
}
layers {
  bottom: "pool4"
  top: "conv5"
  name: "conv5"
  type: CONVOLUTION
  blobs_lr: 1
  blobs_lr: 2
  weight_decay: 1
  weight_decay: 0
  convolution_param {
    num_output: 160
    kernel_size: 3
    weight_filler {
      type: "gaussian"
      std: 0.01
    }
    bias_filler {
      type: "constant"
      value: 0
    }
  }
}
layers {
  bottom: "conv5"
  top: "conv5"
  name: "relu5"
  type: RELU
}
layers {
  bottom: "conv5"
  top: "conv6"
  name: "conv6"
  type: CONVOLUTION
  blobs_lr: 1
  blobs_lr: 2
  weight_decay: 1
  weight_decay: 0
  convolution_param {
    num_output: 200
    kernel_size: 3
    weight_filler {
      type: "gaussian"
      std: 0.01
    }
    bias_filler {
      type: "constant"
      value: 0.1
    }
  }
}
layers {
  bottom: "conv6"
  top: "conv6"
  name: "relu6"
  type: RELU
}
layers {
  bottom: "conv6"
  top: "pool6"
  name: "pool6"
  type: POOLING
  pooling_param {
    pool: MAX
    kernel_size: 3
    stride: 2
  }
}
layers {
  bottom: "pool6"
  top: "conv7"
  name: "conv7"
  type: CONVOLUTION
  blobs_lr: 1
  blobs_lr: 2
  weight_decay: 1
  weight_decay: 0
  convolution_param {
    num_output: 120
    kernel_size: 3
    weight_filler {
      type: "gaussian"
      std: 0.01
    }
    bias_filler {
      type: "constant"
      value: 0.1
    }
  }
}
layers {
  bottom: "conv7"
  top: "conv7"
  name: "relu7"
  type: RELU
}
layers {
  bottom: "conv7"
  top: "norm7"
  name: "norm7"
  type: LRN
  lrn_param {
    local_size: 5
    alpha: 0.0001
    beta: 0.75
  }
}
layers {
  bottom: "norm7"
  top: "pool7"
  name: "pool7"
  type: POOLING
  pooling_param {
    pool: MAX
    kernel_size: 3
    stride: 2
  }
}
layers {
  bottom: "pool7"
  top: "ip1"
  name: "ip1"
  type: INNER_PRODUCT
  blobs_lr: 1
  blobs_lr: 2
  weight_decay: 1
  weight_decay: 0
  inner_product_param {
    num_output: 320
    weight_filler {
      type: "gaussian"
      std: 0.01
    }
    bias_filler {
      type: "constant"
      value: 0.1
    }
  }
}
layers {
  bottom: "ip1"
  top: "ip1"
  name: "relu_ip1"
  type: RELU
}
layers {
  bottom: "ip1"
  top: "ip1"
  name: "drop1"
  type: DROPOUT
  dropout_param {
    dropout_ratio: 0.5
  }
}
layers {
  bottom: "ip1"
  top: "ip2"
  name: "ip2"
  type: INNER_PRODUCT
  blobs_lr: 1
  blobs_lr: 2
  weight_decay: 1
  weight_decay: 0
  inner_product_param {
    num_output: 320
    weight_filler {
      type: "gaussian"
      std: 0.01
    }
    bias_filler {
      type: "constant"
      value: 0.1
    }
  }
}
layers {
  bottom: "ip2"
  top: "ip2"
  name: "relu_ip2"
  type: RELU
}
layers {
  bottom: "ip2"
  top: "ip2"
  name: "drop2"
  type: DROPOUT
  dropout_param {
    dropout_ratio: 0.5
  }
}
layers {
  bottom: "ip2"
  top: "ip3"
  name: "ip3"
  type: INNER_PRODUCT
  blobs_lr: 1
  blobs_lr: 2
  weight_decay: 1
  weight_decay: 0
  inner_product_param {
    num_output: 2
    weight_filler {
      type: "gaussian"
      std: 0.01
    }
    bias_filler {
      type: "constant"
      value: 0
    }
  }
}
layers {
  bottom: "ip3"
  bottom: "label"
  top: "loss"
  name: "loss"
  type: SOFTMAX_LOSS
}
state {
  phase: TRAIN
}
I0513 10:45:04.621449 11914 net.cpp:67] Creating Layer patch
I0513 10:45:04.621470 11914 net.cpp:356] patch -> data
I0513 10:45:04.621500 11914 net.cpp:356] patch -> label
I0513 10:45:04.621523 11914 net.cpp:96] Setting up patch
I0513 10:45:04.621538 11914 image_data_layer.cpp:31] Opening file ./vic_train.txt
I0513 10:45:04.646225 11914 image_data_layer.cpp:43] Shuffling data
I0513 10:45:04.649968 11914 image_data_layer.cpp:48] A total of 34059 images.
I0513 10:45:04.659144 11914 image_data_layer.cpp:78] output data size: 30,3,400,400
I0513 10:45:04.714540 11914 net.cpp:103] Top shape: 30 3 400 400 (14400000)
I0513 10:45:04.714599 11914 net.cpp:103] Top shape: 30 1 1 1 (30)
I0513 10:45:04.714737 11914 net.cpp:67] Creating Layer conv1
I0513 10:45:04.714805 11914 net.cpp:394] conv1 <- data
I0513 10:45:04.714841 11914 net.cpp:356] conv1 -> conv1
I0513 10:45:04.714864 11914 net.cpp:96] Setting up conv1
I0513 10:45:04.715284 11914 net.cpp:103] Top shape: 30 80 198 198 (94089600)
I0513 10:45:04.715322 11914 net.cpp:67] Creating Layer relu1
I0513 10:45:04.715332 11914 net.cpp:394] relu1 <- conv1
I0513 10:45:04.715342 11914 net.cpp:345] relu1 -> conv1 (in-place)
I0513 10:45:04.715353 11914 net.cpp:96] Setting up relu1
I0513 10:45:04.715365 11914 net.cpp:103] Top shape: 30 80 198 198 (94089600)
I0513 10:45:04.715378 11914 net.cpp:67] Creating Layer norm1
I0513 10:45:04.715386 11914 net.cpp:394] norm1 <- conv1
I0513 10:45:04.715397 11914 net.cpp:356] norm1 -> norm1
I0513 10:45:04.715409 11914 net.cpp:96] Setting up norm1
I0513 10:45:04.715445 11914 net.cpp:103] Top shape: 30 80 198 198 (94089600)
I0513 10:45:04.715474 11914 net.cpp:67] Creating Layer pool1
I0513 10:45:04.715483 11914 net.cpp:394] pool1 <- norm1
I0513 10:45:04.715493 11914 net.cpp:356] pool1 -> pool1
I0513 10:45:04.715505 11914 net.cpp:96] Setting up pool1
I0513 10:45:04.715526 11914 net.cpp:103] Top shape: 30 80 99 99 (23522400)
I0513 10:45:04.715540 11914 net.cpp:67] Creating Layer conv2
I0513 10:45:04.715548 11914 net.cpp:394] conv2 <- pool1
I0513 10:45:04.715560 11914 net.cpp:356] conv2 -> conv2
I0513 10:45:04.715571 11914 net.cpp:96] Setting up conv2
I0513 10:45:04.724177 11914 net.cpp:103] Top shape: 30 120 96 96 (33177600)
I0513 10:45:04.724205 11914 net.cpp:67] Creating Layer relu2
I0513 10:45:04.724212 11914 net.cpp:394] relu2 <- conv2
I0513 10:45:04.724223 11914 net.cpp:345] relu2 -> conv2 (in-place)
I0513 10:45:04.724234 11914 net.cpp:96] Setting up relu2
I0513 10:45:04.724242 11914 net.cpp:103] Top shape: 30 120 96 96 (33177600)
I0513 10:45:04.724253 11914 net.cpp:67] Creating Layer norm2
I0513 10:45:04.724261 11914 net.cpp:394] norm2 <- conv2
I0513 10:45:04.724272 11914 net.cpp:356] norm2 -> norm2
I0513 10:45:04.724283 11914 net.cpp:96] Setting up norm2
I0513 10:45:04.724292 11914 net.cpp:103] Top shape: 30 120 96 96 (33177600)
I0513 10:45:04.724304 11914 net.cpp:67] Creating Layer pool2
I0513 10:45:04.724313 11914 net.cpp:394] pool2 <- norm2
I0513 10:45:04.724323 11914 net.cpp:356] pool2 -> pool2
I0513 10:45:04.724334 11914 net.cpp:96] Setting up pool2
I0513 10:45:04.724342 11914 net.cpp:103] Top shape: 30 120 48 48 (8294400)
I0513 10:45:04.724355 11914 net.cpp:67] Creating Layer conv3
I0513 10:45:04.724364 11914 net.cpp:394] conv3 <- pool2
I0513 10:45:04.724375 11914 net.cpp:356] conv3 -> conv3
I0513 10:45:04.724387 11914 net.cpp:96] Setting up conv3
I0513 10:45:04.732049 11914 net.cpp:103] Top shape: 30 160 46 46 (10156800)
I0513 10:45:04.732084 11914 net.cpp:67] Creating Layer relu3
I0513 10:45:04.732094 11914 net.cpp:394] relu3 <- conv3
I0513 10:45:04.732105 11914 net.cpp:345] relu3 -> conv3 (in-place)
I0513 10:45:04.732115 11914 net.cpp:96] Setting up relu3
I0513 10:45:04.732122 11914 net.cpp:103] Top shape: 30 160 46 46 (10156800)
I0513 10:45:04.732134 11914 net.cpp:67] Creating Layer conv4
I0513 10:45:04.732142 11914 net.cpp:394] conv4 <- conv3
I0513 10:45:04.732154 11914 net.cpp:356] conv4 -> conv4
I0513 10:45:04.732167 11914 net.cpp:96] Setting up conv4
I0513 10:45:04.744982 11914 net.cpp:103] Top shape: 30 200 44 44 (11616000)
I0513 10:45:04.745012 11914 net.cpp:67] Creating Layer relu4
I0513 10:45:04.745021 11914 net.cpp:394] relu4 <- conv4
I0513 10:45:04.745033 11914 net.cpp:345] relu4 -> conv4 (in-place)
I0513 10:45:04.745043 11914 net.cpp:96] Setting up relu4
I0513 10:45:04.745051 11914 net.cpp:103] Top shape: 30 200 44 44 (11616000)
I0513 10:45:04.745062 11914 net.cpp:67] Creating Layer pool4
I0513 10:45:04.745070 11914 net.cpp:394] pool4 <- conv4
I0513 10:45:04.745080 11914 net.cpp:356] pool4 -> pool4
I0513 10:45:04.745090 11914 net.cpp:96] Setting up pool4
I0513 10:45:04.745100 11914 net.cpp:103] Top shape: 30 200 22 22 (2904000)
I0513 10:45:04.745112 11914 net.cpp:67] Creating Layer conv5
I0513 10:45:04.745123 11914 net.cpp:394] conv5 <- pool4
I0513 10:45:04.745134 11914 net.cpp:356] conv5 -> conv5
I0513 10:45:04.745146 11914 net.cpp:96] Setting up conv5
I0513 10:45:04.758424 11914 net.cpp:103] Top shape: 30 160 20 20 (1920000)
I0513 10:45:04.758466 11914 net.cpp:67] Creating Layer relu5
I0513 10:45:04.758476 11914 net.cpp:394] relu5 <- conv5
I0513 10:45:04.758487 11914 net.cpp:345] relu5 -> conv5 (in-place)
I0513 10:45:04.758498 11914 net.cpp:96] Setting up relu5
I0513 10:45:04.758507 11914 net.cpp:103] Top shape: 30 160 20 20 (1920000)
I0513 10:45:04.758522 11914 net.cpp:67] Creating Layer conv6
I0513 10:45:04.758530 11914 net.cpp:394] conv6 <- conv5
I0513 10:45:04.758541 11914 net.cpp:356] conv6 -> conv6
I0513 10:45:04.758553 11914 net.cpp:96] Setting up conv6
I0513 10:45:04.771838 11914 net.cpp:103] Top shape: 30 200 18 18 (1944000)
I0513 10:45:04.771885 11914 net.cpp:67] Creating Layer relu6
I0513 10:45:04.771895 11914 net.cpp:394] relu6 <- conv6
I0513 10:45:04.771920 11914 net.cpp:345] relu6 -> conv6 (in-place)
I0513 10:45:04.771932 11914 net.cpp:96] Setting up relu6
I0513 10:45:04.771940 11914 net.cpp:103] Top shape: 30 200 18 18 (1944000)
I0513 10:45:04.771950 11914 net.cpp:67] Creating Layer pool6
I0513 10:45:04.771958 11914 net.cpp:394] pool6 <- conv6
I0513 10:45:04.771970 11914 net.cpp:356] pool6 -> pool6
I0513 10:45:04.771981 11914 net.cpp:96] Setting up pool6
I0513 10:45:04.771991 11914 net.cpp:103] Top shape: 30 200 9 9 (486000)
I0513 10:45:04.772004 11914 net.cpp:67] Creating Layer conv7
I0513 10:45:04.772012 11914 net.cpp:394] conv7 <- pool6
I0513 10:45:04.772023 11914 net.cpp:356] conv7 -> conv7
I0513 10:45:04.772034 11914 net.cpp:96] Setting up conv7
I0513 10:45:04.781975 11914 net.cpp:103] Top shape: 30 120 7 7 (176400)
I0513 10:45:04.782002 11914 net.cpp:67] Creating Layer relu7
I0513 10:45:04.782011 11914 net.cpp:394] relu7 <- conv7
I0513 10:45:04.782021 11914 net.cpp:345] relu7 -> conv7 (in-place)
I0513 10:45:04.782032 11914 net.cpp:96] Setting up relu7
I0513 10:45:04.782040 11914 net.cpp:103] Top shape: 30 120 7 7 (176400)
I0513 10:45:04.782053 11914 net.cpp:67] Creating Layer norm7
I0513 10:45:04.782062 11914 net.cpp:394] norm7 <- conv7
I0513 10:45:04.782073 11914 net.cpp:356] norm7 -> norm7
I0513 10:45:04.782084 11914 net.cpp:96] Setting up norm7
I0513 10:45:04.782094 11914 net.cpp:103] Top shape: 30 120 7 7 (176400)
I0513 10:45:04.782104 11914 net.cpp:67] Creating Layer pool7
I0513 10:45:04.782112 11914 net.cpp:394] pool7 <- norm7
I0513 10:45:04.782122 11914 net.cpp:356] pool7 -> pool7
I0513 10:45:04.782135 11914 net.cpp:96] Setting up pool7
I0513 10:45:04.782146 11914 net.cpp:103] Top shape: 30 120 3 3 (32400)
I0513 10:45:04.782160 11914 net.cpp:67] Creating Layer ip1
I0513 10:45:04.782167 11914 net.cpp:394] ip1 <- pool7
I0513 10:45:04.782179 11914 net.cpp:356] ip1 -> ip1
I0513 10:45:04.782191 11914 net.cpp:96] Setting up ip1
I0513 10:45:04.797785 11914 net.cpp:103] Top shape: 30 320 1 1 (9600)
I0513 10:45:04.797821 11914 net.cpp:67] Creating Layer relu_ip1
I0513 10:45:04.797829 11914 net.cpp:394] relu_ip1 <- ip1
I0513 10:45:04.797842 11914 net.cpp:345] relu_ip1 -> ip1 (in-place)
I0513 10:45:04.797852 11914 net.cpp:96] Setting up relu_ip1
I0513 10:45:04.797862 11914 net.cpp:103] Top shape: 30 320 1 1 (9600)
I0513 10:45:04.797873 11914 net.cpp:67] Creating Layer drop1
I0513 10:45:04.797879 11914 net.cpp:394] drop1 <- ip1
I0513 10:45:04.797889 11914 net.cpp:345] drop1 -> ip1 (in-place)
I0513 10:45:04.797900 11914 net.cpp:96] Setting up drop1
I0513 10:45:04.797912 11914 net.cpp:103] Top shape: 30 320 1 1 (9600)
I0513 10:45:04.797924 11914 net.cpp:67] Creating Layer ip2
I0513 10:45:04.797932 11914 net.cpp:394] ip2 <- ip1
I0513 10:45:04.797943 11914 net.cpp:356] ip2 -> ip2
I0513 10:45:04.797956 11914 net.cpp:96] Setting up ip2
I0513 10:45:04.802577 11914 net.cpp:103] Top shape: 30 320 1 1 (9600)
I0513 10:45:04.802604 11914 net.cpp:67] Creating Layer relu_ip2
I0513 10:45:04.802613 11914 net.cpp:394] relu_ip2 <- ip2
I0513 10:45:04.802623 11914 net.cpp:345] relu_ip2 -> ip2 (in-place)
I0513 10:45:04.802634 11914 net.cpp:96] Setting up relu_ip2
I0513 10:45:04.802642 11914 net.cpp:103] Top shape: 30 320 1 1 (9600)
I0513 10:45:04.802652 11914 net.cpp:67] Creating Layer drop2
I0513 10:45:04.802660 11914 net.cpp:394] drop2 <- ip2
I0513 10:45:04.802670 11914 net.cpp:345] drop2 -> ip2 (in-place)
I0513 10:45:04.802680 11914 net.cpp:96] Setting up drop2
I0513 10:45:04.802688 11914 net.cpp:103] Top shape: 30 320 1 1 (9600)
I0513 10:45:04.802700 11914 net.cpp:67] Creating Layer ip3
I0513 10:45:04.802706 11914 net.cpp:394] ip3 <- ip2
I0513 10:45:04.802717 11914 net.cpp:356] ip3 -> ip3
I0513 10:45:04.802729 11914 net.cpp:96] Setting up ip3
I0513 10:45:04.802772 11914 net.cpp:103] Top shape: 30 2 1 1 (60)
I0513 10:45:04.802789 11914 net.cpp:67] Creating Layer loss
I0513 10:45:04.802798 11914 net.cpp:394] loss <- ip3
I0513 10:45:04.802806 11914 net.cpp:394] loss <- label
I0513 10:45:04.802830 11914 net.cpp:356] loss -> loss
I0513 10:45:04.802855 11914 net.cpp:96] Setting up loss
I0513 10:45:04.802878 11914 net.cpp:103] Top shape: 1 1 1 1 (1)
I0513 10:45:04.802887 11914 net.cpp:109]     with loss weight 1
I0513 10:45:04.802937 11914 net.cpp:170] loss needs backward computation.
I0513 10:45:04.802945 11914 net.cpp:170] ip3 needs backward computation.
I0513 10:45:04.802953 11914 net.cpp:170] drop2 needs backward computation.
I0513 10:45:04.802960 11914 net.cpp:170] relu_ip2 needs backward computation.
I0513 10:45:04.802968 11914 net.cpp:170] ip2 needs backward computation.
…
I0513 10:45:04.803216 11914 net.cpp:220] Memory required for data: 1933205164
I0513 10:45:04.804389 11914 solver.cpp:151] Creating test net (#0) specified by net file: ./brca_train_test.prototxt
I0513 10:45:04.804455 11914 net.cpp:275] The NetState phase (1) differed from the phase (0) specified by a rule in layer patch
I0513 10:45:04.804786 11914 net.cpp:39] Initializing net from parameters: 
name: "brca"
layers {
  top: "data"
  top: "label"
  name: "patch"
  type: IMAGE_DATA
  image_data_param {
    source: "./vic_test.txt"
    batch_size: 30
    shuffle: true
  }
  include {
    phase: TEST
  }
  transform_param {
    mirror: false
    crop_size: 400
  }
}
layers {
  bottom: "data"
  top: "conv1"
  name: "conv1"
  type: CONVOLUTION
  blobs_lr: 1
  blobs_lr: 2
  weight_decay: 1
  weight_decay: 0
  convolution_param {
    num_output: 80
    kernel_size: 5
    stride: 2
    weight_filler {
      type: "gaussian"
      std: 0.01
    }
    bias_filler {
      type: "constant"
      value: 0
    }
  }
}
layers {
  bottom: "conv1"
  top: "conv1"
  name: "relu1"
  type: RELU
}
layers {
  bottom: "conv1"
  top: "norm1"
  name: "norm1"
  type: LRN
  lrn_param {
    local_size: 5
    alpha: 0.0001
    beta: 0.75
  }
}
layers {
  bottom: "norm1"
  top: "pool1"
  name: "pool1"
  type: POOLING
  pooling_param {
    pool: MAX
    kernel_size: 3
    stride: 2
  }
}
layers {
  bottom: "pool1"
  top: "conv2"
  name: "conv2"
  type: CONVOLUTION
  blobs_lr: 1
  blobs_lr: 2
  weight_decay: 1
  weight_decay: 0
  convolution_param {
    num_output: 120
    kernel_size: 4
    weight_filler {
      type: "gaussian"
      std: 0.01
    }
    bias_filler {
      type: "constant"
      value: 0.1
    }
  }
}
layers {
  bottom: "conv2"
  top: "conv2"
  name: "relu2"
  type: RELU
}
layers {
  bottom: "conv2"
  top: "norm2"
  name: "norm2"
  type: LRN
  lrn_param {
    local_size: 5
    alpha: 0.0001
    beta: 0.75
  }
}
layers {
  bottom: "norm2"
  top: "pool2"
  name: "pool2"
  type: POOLING
  pooling_param {
    pool: MAX
    kernel_size: 3
    stride: 2
  }
}
layers {
  bottom: "pool2"
  top: "conv3"
  name: "conv3"
  type: CONVOLUTION
  blobs_lr: 1
  blobs_lr: 2
  weight_decay: 1
  weight_decay: 0
  convolution_param {
    num_output: 160
    kernel_size: 3
    weight_filler {
      type: "gaussian"
      std: 0.01
    }
    bias_filler {
      type: "constant"
      value: 0
    }
  }
}
layers {
  bottom: "conv3"
  top: "conv3"
  name: "relu3"
  type: RELU
}
layers {
  bottom: "conv3"
  top: "conv4"
  name: "conv4"
  type: CONVOLUTION
  blobs_lr: 1
  blobs_lr: 2
  weight_decay: 1
  weight_decay: 0
  convolution_param {
    num_output: 200
    kernel_size: 3
    weight_filler {
      type: "gaussian"
      std: 0.01
    }
    bias_filler {
      type: "constant"
      value: 0.1
    }
  }
}
layers {
  bottom: "conv4"
  top: "conv4"
  name: "relu4"
  type: RELU
}
layers {
  bottom: "conv4"
  top: "pool4"
  name: "pool4"
  type: POOLING
  pooling_param {
    pool: MAX
    kernel_size: 3
    stride: 2
  }
}
layers {
  bottom: "pool4"
  top: "conv5"
  name: "conv5"
  type: CONVOLUTION
  blobs_lr: 1
  blobs_lr: 2
  weight_decay: 1
  weight_decay: 0
  convolution_param {
    num_output: 160
    kernel_size: 3
    weight_filler {
      type: "gaussian"
      std: 0.01
    }
    bias_filler {
      type: "constant"
      value: 0
    }
  }
}
layers {
  bottom: "conv5"
  top: "conv5"
  name: "relu5"
  type: RELU
}
layers {
  bottom: "conv5"
  top: "conv6"
  name: "conv6"
  type: CONVOLUTION
  blobs_lr: 1
  blobs_lr: 2
  weight_decay: 1
  weight_decay: 0
  convolution_param {
    num_output: 200
    kernel_size: 3
    weight_filler {
      type: "gaussian"
      std: 0.01
    }
    bias_filler {
      type: "constant"
      value: 0.1
    }
  }
}
layers {
  bottom: "conv6"
  top: "conv6"
  name: "relu6"
  type: RELU
}
layers {
  bottom: "conv6"
  top: "pool6"
  name: "pool6"
  type: POOLING
  pooling_param {
    pool: MAX
    kernel_size: 3
    stride: 2
  }
}
layers {
  bottom: "pool6"
  top: "conv7"
  name: "conv7"
  type: CONVOLUTION
  blobs_lr: 1
  blobs_lr: 2
  weight_decay: 1
  weight_decay: 0
  convolution_param {
    num_output: 120
    kernel_size: 3
    weight_filler {
      type: "gaussian"
      std: 0.01
    }
    bias_filler {
      type: "constant"
      value: 0.1
    }
  }
}
layers {
  bottom: "conv7"
  top: "conv7"
  name: "relu7"
  type: RELU
}
layers {
  bottom: "conv7"
  top: "norm7"
  name: "norm7"
  type: LRN
  lrn_param {
    local_size: 5
    alpha: 0.0001
    beta: 0.75
  }
}
layers {
  bottom: "norm7"
  top: "pool7"
  name: "pool7"
  type: POOLING
  pooling_param {
    pool: MAX
    kernel_size: 3
    stride: 2
  }
}
layers {
  bottom: "pool7"
  top: "ip1"
  name: "ip1"
  type: INNER_PRODUCT
  blobs_lr: 1
  blobs_lr: 2
  weight_decay: 1
  weight_decay: 0
  inner_product_param {
    num_output: 320
    weight_filler {
      type: "gaussian"
      std: 0.01
    }
    bias_filler {
      type: "constant"
      value: 0.1
    }
  }
}
layers {
  bottom: "ip1"
  top: "ip1"
  name: "relu_ip1"
  type: RELU
}
layers {
  bottom: "ip1"
  top: "ip1"
  name: "drop1"
  type: DROPOUT
  dropout_param {
    dropout_ratio: 0.5
  }
}
layers {
  bottom: "ip1"
  top: "ip2"
  name: "ip2"
  type: INNER_PRODUCT
  blobs_lr: 1
  blobs_lr: 2
  weight_decay: 1
  weight_decay: 0
  inner_product_param {
    num_output: 320
    weight_filler {
      type: "gaussian"
      std: 0.01
    }
    bias_filler {
      type: "constant"
      value: 0.1
    }
  }
}
layers {
  bottom: "ip2"
  top: "ip2"
  name: "relu_ip2"
  type: RELU
}
layers {
  bottom: "ip2"
  top: "ip2"
  name: "drop2"
  type: DROPOUT
  dropout_param {
    dropout_ratio: 0.5
  }
}
layers {
  bottom: "ip2"
  top: "ip3"
  name: "ip3"
  type: INNER_PRODUCT
  blobs_lr: 1
  blobs_lr: 2
  weight_decay: 1
  weight_decay: 0
  inner_product_param {
    num_output: 2
    weight_filler {
      type: "gaussian"
      std: 0.01
    }
    bias_filler {
      type: "constant"
      value: 0
    }
  }
}
layers {
  bottom: "ip3"
  bottom: "label"
  top: "accuracy"
  name: "accuracy"
  type: ACCURACY
  include {
    phase: TEST
  }
}
layers {
  bottom: "ip3"
  bottom: "label"
  top: "loss"
  name: "loss"
  type: SOFTMAX_LOSS
}
state {
  phase: TEST
}
I0513 10:45:04.804993 11914 net.cpp:67] Creating Layer patch
I0513 10:45:04.805008 11914 net.cpp:356] patch -> data
I0513 10:45:04.805023 11914 net.cpp:356] patch -> label
I0513 10:45:04.805037 11914 net.cpp:96] Setting up patch
I0513 10:45:04.805045 11914 image_data_layer.cpp:31] Opening file ./vic_test.txt
I0513 10:45:04.828608 11914 image_data_layer.cpp:43] Shuffling data
I0513 10:45:04.831825 11914 image_data_layer.cpp:48] A total of 34280 images.
I0513 10:45:04.839890 11914 image_data_layer.cpp:78] output data size: 30,3,400,400
I0513 10:45:04.873685 11914 net.cpp:103] Top shape: 30 3 400 400 (14400000)
I0513 10:45:04.873734 11914 net.cpp:103] Top shape: 30 1 1 1 (30)
I0513 10:45:04.873755 11914 net.cpp:67] Creating Layer label_patch_1_split
I0513 10:45:04.873765 11914 net.cpp:394] label_patch_1_split <- label
I0513 10:45:04.873780 11914 net.cpp:356] label_patch_1_split -> label_patch_1_split_0
I0513 10:45:04.873800 11914 net.cpp:356] label_patch_1_split -> label_patch_1_split_1
I0513 10:45:04.873811 11914 net.cpp:96] Setting up label_patch_1_split
I0513 10:45:04.873829 11914 net.cpp:103] Top shape: 30 1 1 1 (30)
I0513 10:45:04.873838 11914 net.cpp:103] Top shape: 30 1 1 1 (30)
I0513 10:45:04.873854 11914 net.cpp:67] Creating Layer conv1
I0513 10:45:04.873864 11914 net.cpp:394] conv1 <- data
I0513 10:45:04.873877 11914 net.cpp:356] conv1 -> conv1
I0513 10:45:04.873890 11914 net.cpp:96] Setting up conv1
I0513 10:45:04.874244 11914 net.cpp:103] Top shape: 30 80 198 198 (94089600)
I0513 10:45:04.874274 11914 net.cpp:67] Creating Layer relu1
I0513 10:45:04.874282 11914 net.cpp:394] relu1 <- conv1
I0513 10:45:04.874294 11914 net.cpp:345] relu1 -> conv1 (in-place)
I0513 10:45:04.874305 11914 net.cpp:96] Setting up relu1
I0513 10:45:04.874313 11914 net.cpp:103] Top shape: 30 80 198 198 (94089600)
I0513 10:45:04.874326 11914 net.cpp:67] Creating Layer norm1
I0513 10:45:04.874335 11914 net.cpp:394] norm1 <- conv1
I0513 10:45:04.874346 11914 net.cpp:356] norm1 -> norm1
I0513 10:45:04.874356 11914 net.cpp:96] Setting up norm1
I0513 10:45:04.874367 11914 net.cpp:103] Top shape: 30 80 198 198 (94089600)
I0513 10:45:04.874378 11914 net.cpp:67] Creating Layer pool1
I0513 10:45:04.874387 11914 net.cpp:394] pool1 <- norm1
I0513 10:45:04.874398 11914 net.cpp:356] pool1 -> pool1
I0513 10:45:04.874409 11914 net.cpp:96] Setting up pool1
I0513 10:45:04.874421 11914 net.cpp:103] Top shape: 30 80 99 99 (23522400)
I0513 10:45:04.874433 11914 net.cpp:67] Creating Layer conv2
I0513 10:45:04.874441 11914 net.cpp:394] conv2 <- pool1
I0513 10:45:04.874454 11914 net.cpp:356] conv2 -> conv2
I0513 10:45:04.874465 11914 net.cpp:96] Setting up conv2
I0513 10:45:04.881299 11914 net.cpp:103] Top shape: 30 120 96 96 (33177600)
I0513 10:45:04.881325 11914 net.cpp:67] Creating Layer relu2
I0513 10:45:04.881335 11914 net.cpp:394] relu2 <- conv2
I0513 10:45:04.881345 11914 net.cpp:345] relu2 -> conv2 (in-place)
I0513 10:45:04.881356 11914 net.cpp:96] Setting up relu2
I0513 10:45:04.881364 11914 net.cpp:103] Top shape: 30 120 96 96 (33177600)
I0513 10:45:04.881377 11914 net.cpp:67] Creating Layer norm2
I0513 10:45:04.881386 11914 net.cpp:394] norm2 <- conv2
I0513 10:45:04.881422 11914 net.cpp:356] norm2 -> norm2
I0513 10:45:04.881435 11914 net.cpp:96] Setting up norm2
I0513 10:45:04.881460 11914 net.cpp:103] Top shape: 30 120 96 96 (33177600)
I0513 10:45:04.881472 11914 net.cpp:67] Creating Layer pool2
I0513 10:45:04.881481 11914 net.cpp:394] pool2 <- norm2
I0513 10:45:04.881491 11914 net.cpp:356] pool2 -> pool2
I0513 10:45:04.881502 11914 net.cpp:96] Setting up pool2
I0513 10:45:04.881512 11914 net.cpp:103] Top shape: 30 120 48 48 (8294400)
I0513 10:45:04.881523 11914 net.cpp:67] Creating Layer conv3
I0513 10:45:04.881531 11914 net.cpp:394] conv3 <- pool2
I0513 10:45:04.881543 11914 net.cpp:356] conv3 -> conv3
I0513 10:45:04.881554 11914 net.cpp:96] Setting up conv3
I0513 10:45:04.889224 11914 net.cpp:103] Top shape: 30 160 46 46 (10156800)
I0513 10:45:04.889248 11914 net.cpp:67] Creating Layer relu3
I0513 10:45:04.889257 11914 net.cpp:394] relu3 <- conv3
I0513 10:45:04.889267 11914 net.cpp:345] relu3 -> conv3 (in-place)
I0513 10:45:04.889278 11914 net.cpp:96] Setting up relu3
I0513 10:45:04.889286 11914 net.cpp:103] Top shape: 30 160 46 46 (10156800)
I0513 10:45:04.889298 11914 net.cpp:67] Creating Layer conv4
I0513 10:45:04.889307 11914 net.cpp:394] conv4 <- conv3
I0513 10:45:04.889317 11914 net.cpp:356] conv4 -> conv4
I0513 10:45:04.889329 11914 net.cpp:96] Setting up conv4
I0513 10:45:04.902128 11914 net.cpp:103] Top shape: 30 200 44 44 (11616000)
I0513 10:45:04.902155 11914 net.cpp:67] Creating Layer relu4
I0513 10:45:04.902164 11914 net.cpp:394] relu4 <- conv4
I0513 10:45:04.902175 11914 net.cpp:345] relu4 -> conv4 (in-place)
I0513 10:45:04.902186 11914 net.cpp:96] Setting up relu4
I0513 10:45:04.902194 11914 net.cpp:103] Top shape: 30 200 44 44 (11616000)
I0513 10:45:04.902206 11914 net.cpp:67] Creating Layer pool4
I0513 10:45:04.902215 11914 net.cpp:394] pool4 <- conv4
I0513 10:45:04.902225 11914 net.cpp:356] pool4 -> pool4
I0513 10:45:04.902236 11914 net.cpp:96] Setting up pool4
I0513 10:45:04.902246 11914 net.cpp:103] Top shape: 30 200 22 22 (2904000)
I0513 10:45:04.902258 11914 net.cpp:67] Creating Layer conv5
I0513 10:45:04.902267 11914 net.cpp:394] conv5 <- pool4
I0513 10:45:04.902278 11914 net.cpp:356] conv5 -> conv5
I0513 10:45:04.902290 11914 net.cpp:96] Setting up conv5
I0513 10:45:04.915491 11914 net.cpp:103] Top shape: 30 160 20 20 (1920000)
I0513 10:45:04.915524 11914 net.cpp:67] Creating Layer relu5
I0513 10:45:04.915534 11914 net.cpp:394] relu5 <- conv5
I0513 10:45:04.915544 11914 net.cpp:345] relu5 -> conv5 (in-place)
I0513 10:45:04.915556 11914 net.cpp:96] Setting up relu5
I0513 10:45:04.915565 11914 net.cpp:103] Top shape: 30 160 20 20 (1920000)
I0513 10:45:04.915575 11914 net.cpp:67] Creating Layer conv6
I0513 10:45:04.915583 11914 net.cpp:394] conv6 <- conv5
I0513 10:45:04.915594 11914 net.cpp:356] conv6 -> conv6
I0513 10:45:04.915606 11914 net.cpp:96] Setting up conv6
I0513 10:45:04.928802 11914 net.cpp:103] Top shape: 30 200 18 18 (1944000)
I0513 10:45:04.928828 11914 net.cpp:67] Creating Layer relu6
I0513 10:45:04.928838 11914 net.cpp:394] relu6 <- conv6
I0513 10:45:04.928848 11914 net.cpp:345] relu6 -> conv6 (in-place)
I0513 10:45:04.928859 11914 net.cpp:96] Setting up relu6
I0513 10:45:04.928867 11914 net.cpp:103] Top shape: 30 200 18 18 (1944000)
I0513 10:45:04.928879 11914 net.cpp:67] Creating Layer pool6
I0513 10:45:04.928886 11914 net.cpp:394] pool6 <- conv6
I0513 10:45:04.928896 11914 net.cpp:356] pool6 -> pool6
I0513 10:45:04.928907 11914 net.cpp:96] Setting up pool6
I0513 10:45:04.928917 11914 net.cpp:103] Top shape: 30 200 9 9 (486000)
I0513 10:45:04.928930 11914 net.cpp:67] Creating Layer conv7
I0513 10:45:04.928937 11914 net.cpp:394] conv7 <- pool6
I0513 10:45:04.928948 11914 net.cpp:356] conv7 -> conv7
I0513 10:45:04.928962 11914 net.cpp:96] Setting up conv7
I0513 10:45:04.938876 11914 net.cpp:103] Top shape: 30 120 7 7 (176400)
I0513 10:45:04.938901 11914 net.cpp:67] Creating Layer relu7
I0513 10:45:04.938911 11914 net.cpp:394] relu7 <- conv7
I0513 10:45:04.938922 11914 net.cpp:345] relu7 -> conv7 (in-place)
I0513 10:45:04.938932 11914 net.cpp:96] Setting up relu7
I0513 10:45:04.938957 11914 net.cpp:103] Top shape: 30 120 7 7 (176400)
I0513 10:45:04.938983 11914 net.cpp:67] Creating Layer norm7
I0513 10:45:04.938992 11914 net.cpp:394] norm7 <- conv7
I0513 10:45:04.939003 11914 net.cpp:356] norm7 -> norm7
I0513 10:45:04.939014 11914 net.cpp:96] Setting up norm7
I0513 10:45:04.939024 11914 net.cpp:103] Top shape: 30 120 7 7 (176400)
I0513 10:45:04.939034 11914 net.cpp:67] Creating Layer pool7
I0513 10:45:04.939043 11914 net.cpp:394] pool7 <- norm7
I0513 10:45:04.939054 11914 net.cpp:356] pool7 -> pool7
I0513 10:45:04.939064 11914 net.cpp:96] Setting up pool7
I0513 10:45:04.939074 11914 net.cpp:103] Top shape: 30 120 3 3 (32400)
I0513 10:45:04.939085 11914 net.cpp:67] Creating Layer ip1
I0513 10:45:04.939093 11914 net.cpp:394] ip1 <- pool7
I0513 10:45:04.939105 11914 net.cpp:356] ip1 -> ip1
I0513 10:45:04.939116 11914 net.cpp:96] Setting up ip1
I0513 10:45:04.954694 11914 net.cpp:103] Top shape: 30 320 1 1 (9600)
I0513 10:45:04.954721 11914 net.cpp:67] Creating Layer relu_ip1
I0513 10:45:04.954730 11914 net.cpp:394] relu_ip1 <- ip1
I0513 10:45:04.954741 11914 net.cpp:345] relu_ip1 -> ip1 (in-place)
I0513 10:45:04.954752 11914 net.cpp:96] Setting up relu_ip1
I0513 10:45:04.954761 11914 net.cpp:103] Top shape: 30 320 1 1 (9600)
I0513 10:45:04.954771 11914 net.cpp:67] Creating Layer drop1
I0513 10:45:04.954778 11914 net.cpp:394] drop1 <- ip1
I0513 10:45:04.954788 11914 net.cpp:345] drop1 -> ip1 (in-place)
I0513 10:45:04.954799 11914 net.cpp:96] Setting up drop1
I0513 10:45:04.954808 11914 net.cpp:103] Top shape: 30 320 1 1 (9600)
I0513 10:45:04.954819 11914 net.cpp:67] Creating Layer ip2
I0513 10:45:04.954828 11914 net.cpp:394] ip2 <- ip1
I0513 10:45:04.954838 11914 net.cpp:356] ip2 -> ip2
I0513 10:45:04.954850 11914 net.cpp:96] Setting up ip2
I0513 10:45:04.959457 11914 net.cpp:103] Top shape: 30 320 1 1 (9600)
I0513 10:45:04.959486 11914 net.cpp:67] Creating Layer relu_ip2
I0513 10:45:04.959496 11914 net.cpp:394] relu_ip2 <- ip2
I0513 10:45:04.959506 11914 net.cpp:345] relu_ip2 -> ip2 (in-place)
I0513 10:45:04.959517 11914 net.cpp:96] Setting up relu_ip2
I0513 10:45:04.959524 11914 net.cpp:103] Top shape: 30 320 1 1 (9600)
I0513 10:45:04.959533 11914 net.cpp:67] Creating Layer drop2
I0513 10:45:04.959542 11914 net.cpp:394] drop2 <- ip2
I0513 10:45:04.959552 11914 net.cpp:345] drop2 -> ip2 (in-place)
I0513 10:45:04.959561 11914 net.cpp:96] Setting up drop2
I0513 10:45:04.959569 11914 net.cpp:103] Top shape: 30 320 1 1 (9600)
I0513 10:45:04.959580 11914 net.cpp:67] Creating Layer ip3
I0513 10:45:04.959589 11914 net.cpp:394] ip3 <- ip2
I0513 10:45:04.959599 11914 net.cpp:356] ip3 -> ip3
I0513 10:45:04.959611 11914 net.cpp:96] Setting up ip3
I0513 10:45:04.959653 11914 net.cpp:103] Top shape: 30 2 1 1 (60)
I0513 10:45:04.959668 11914 net.cpp:67] Creating Layer ip3_ip3_0_split
I0513 10:45:04.959676 11914 net.cpp:394] ip3_ip3_0_split <- ip3
I0513 10:45:04.959686 11914 net.cpp:356] ip3_ip3_0_split -> ip3_ip3_0_split_0
I0513 10:45:04.959698 11914 net.cpp:356] ip3_ip3_0_split -> ip3_ip3_0_split_1
I0513 10:45:04.959710 11914 net.cpp:96] Setting up ip3_ip3_0_split
I0513 10:45:04.959719 11914 net.cpp:103] Top shape: 30 2 1 1 (60)
I0513 10:45:04.959728 11914 net.cpp:103] Top shape: 30 2 1 1 (60)
I0513 10:45:04.959743 11914 net.cpp:67] Creating Layer accuracy
I0513 10:45:04.959751 11914 net.cpp:394] accuracy <- ip3_ip3_0_split_0
I0513 10:45:04.959760 11914 net.cpp:394] accuracy <- label_patch_1_split_0
I0513 10:45:04.959795 11914 net.cpp:356] accuracy -> accuracy
I0513 10:45:04.959811 11914 net.cpp:96] Setting up accuracy
I0513 10:45:04.959826 11914 net.cpp:103] Top shape: 1 1 1 1 (1)
I0513 10:45:04.959839 11914 net.cpp:67] Creating Layer loss
I0513 10:45:04.959848 11914 net.cpp:394] loss <- ip3_ip3_0_split_1
I0513 10:45:04.959857 11914 net.cpp:394] loss <- label_patch_1_split_1
I0513 10:45:04.959867 11914 net.cpp:356] loss -> loss
I0513 10:45:04.959879 11914 net.cpp:96] Setting up loss
I0513 10:45:04.959892 11914 net.cpp:103] Top shape: 1 1 1 1 (1)
I0513 10:45:04.959900 11914 net.cpp:109]     with loss weight 1
I0513 10:45:04.959931 11914 net.cpp:170] loss needs backward computation.
I0513 10:45:04.959951 11914 net.cpp:172] accuracy does not need backward computation.
I0513 10:45:04.959959 11914 net.cpp:170] ip3_ip3_0_split needs backward computation.
I0513 10:45:04.959967 11914 net.cpp:170] ip3 needs backward computation.
I0513 10:45:04.959975 11914 net.cpp:170] drop2 needs backward computation.
…
