
                            < M A T L A B (R) >
                  Copyright 1984-2014 The MathWorks, Inc.
                    R2014a (8.3.0.532) 64-bit (glnxa64)
                             February 11, 2014

 
To get started, type one of these: helpwin, helpdesk, or demo.
For product information, visit www.mathworks.com.
 
>> WARNING: Logging before InitGoogleLogging() is written to STDERR
I0514 23:15:28.342977 25168 net.cpp:39] Initializing net from parameters: 
name: "brca"
layers {
  bottom: "data"
  top: "conv1"
  name: "conv1"
  type: CONVOLUTION
  blobs_lr: 1
  blobs_lr: 2
  weight_decay: 1
  weight_decay: 0
  convolution_param {
    num_output: 80
    kernel_size: 5
    stride: 2
  }
}
layers {
  bottom: "conv1"
  top: "conv1"
  name: "relu1"
  type: RELU
}
layers {
  bottom: "conv1"
  top: "norm1"
  name: "norm1"
  type: LRN
  lrn_param {
    local_size: 5
    alpha: 0.0001
    beta: 0.75
  }
}
layers {
  bottom: "norm1"
  top: "pool1"
  name: "pool1"
  type: POOLING
  pooling_param {
    pool: MAX
    kernel_size: 3
    stride: 2
  }
}
layers {
  bottom: "pool1"
  top: "conv2"
  name: "conv2"
  type: CONVOLUTION
  blobs_lr: 1
  blobs_lr: 2
  weight_decay: 1
  weight_decay: 0
  convolution_param {
    num_output: 120
    kernel_size: 4
  }
}
layers {
  bottom: "conv2"
  top: "conv2"
  name: "relu2"
  type: RELU
}
layers {
  bottom: "conv2"
  top: "norm2"
  name: "norm2"
  type: LRN
  lrn_param {
    local_size: 5
    alpha: 0.0001
    beta: 0.75
  }
}
layers {
  bottom: "norm2"
  top: "pool2"
  name: "pool2"
  type: POOLING
  pooling_param {
    pool: MAX
    kernel_size: 3
    stride: 2
  }
}
layers {
  bottom: "pool2"
  top: "conv3"
  name: "conv3"
  type: CONVOLUTION
  blobs_lr: 1
  blobs_lr: 2
  weight_decay: 1
  weight_decay: 0
  convolution_param {
    num_output: 160
    kernel_size: 3
  }
}
layers {
  bottom: "conv3"
  top: "conv3"
  name: "relu3"
  type: RELU
}
layers {
  bottom: "conv3"
  top: "conv4"
  name: "conv4"
  type: CONVOLUTION
  blobs_lr: 1
  blobs_lr: 2
  weight_decay: 1
  weight_decay: 0
  convolution_param {
    num_output: 200
    kernel_size: 3
  }
}
layers {
  bottom: "conv4"
  top: "conv4"
  name: "relu4"
  type: RELU
}
layers {
  bottom: "conv4"
  top: "pool4"
  name: "pool4"
  type: POOLING
  pooling_param {
    pool: MAX
    kernel_size: 3
    stride: 2
  }
}
layers {
  bottom: "pool4"
  top: "conv5"
  name: "conv5"
  type: CONVOLUTION
  blobs_lr: 1
  blobs_lr: 2
  weight_decay: 1
  weight_decay: 0
  convolution_param {
    num_output: 160
    kernel_size: 3
  }
}
layers {
  bottom: "conv5"
  top: "conv5"
  name: "relu5"
  type: RELU
}
layers {
  bottom: "conv5"
  top: "conv6"
  name: "conv6"
  type: CONVOLUTION
  blobs_lr: 1
  blobs_lr: 2
  weight_decay: 1
  weight_decay: 0
  convolution_param {
    num_output: 200
    kernel_size: 3
  }
}
layers {
  bottom: "conv6"
  top: "conv6"
  name: "relu6"
  type: RELU
}
layers {
  bottom: "conv6"
  top: "pool6"
  name: "pool6"
  type: POOLING
  pooling_param {
    pool: MAX
    kernel_size: 3
    stride: 2
  }
}
layers {
  bottom: "pool6"
  top: "conv7"
  name: "conv7"
  type: CONVOLUTION
  blobs_lr: 1
  blobs_lr: 2
  weight_decay: 1
  weight_decay: 0
  convolution_param {
    num_output: 120
    kernel_size: 3
  }
}
layers {
  bottom: "conv7"
  top: "conv7"
  name: "relu7"
  type: RELU
}
layers {
  bottom: "conv7"
  top: "norm7"
  name: "norm7"
  type: LRN
  lrn_param {
    local_size: 5
    alpha: 0.0001
    beta: 0.75
  }
}
layers {
  bottom: "norm7"
  top: "pool7"
  name: "pool7"
  type: POOLING
  pooling_param {
    pool: MAX
    kernel_size: 3
    stride: 2
  }
}
layers {
  bottom: "pool7"
  top: "ip1"
  name: "ip1"
  type: INNER_PRODUCT
  blobs_lr: 1
  blobs_lr: 2
  weight_decay: 1
  weight_decay: 0
  inner_product_param {
    num_output: 320
  }
}
layers {
  bottom: "ip1"
  top: "ip1"
  name: "relu_ip1"
  type: RELU
}
layers {
  bottom: "ip1"
  top: "ip1"
  name: "drop1"
  type: DROPOUT
  dropout_param {
    dropout_ratio: 0.5
  }
}
layers {
  bottom: "ip1"
  top: "ip2"
  name: "ip2"
  type: INNER_PRODUCT
  blobs_lr: 1
  blobs_lr: 2
  weight_decay: 1
  weight_decay: 0
  inner_product_param {
    num_output: 320
  }
}
layers {
  bottom: "ip2"
  top: "ip2"
  name: "relu_ip2"
  type: RELU
}
layers {
  bottom: "ip2"
  top: "ip2"
  name: "drop2"
  type: DROPOUT
  dropout_param {
    dropout_ratio: 0.5
  }
}
layers {
  bottom: "ip2"
  top: "ip3"
  name: "ip3"
  type: INNER_PRODUCT
  blobs_lr: 1
  blobs_lr: 2
  weight_decay: 1
  weight_decay: 0
  inner_product_param {
    num_output: 2
  }
}
layers {
  bottom: "ip3"
  top: "prob"
  name: "prob"
  type: SOFTMAX
}
input: "data"
input_dim: 10
input_dim: 3
input_dim: 400
input_dim: 400
I0514 23:15:28.343194 25168 net.cpp:358] Input 0 -> data
I0514 23:15:28.343253 25168 net.cpp:67] Creating Layer conv1
I0514 23:15:28.343266 25168 net.cpp:394] conv1 <- data
I0514 23:15:28.343276 25168 net.cpp:356] conv1 -> conv1
I0514 23:15:28.343291 25168 net.cpp:96] Setting up conv1
I0514 23:15:28.343499 25168 net.cpp:103] Top shape: 10 80 198 198 (31363200)
I0514 23:15:28.343534 25168 net.cpp:67] Creating Layer relu1
I0514 23:15:28.343544 25168 net.cpp:394] relu1 <- conv1
I0514 23:15:28.343551 25168 net.cpp:345] relu1 -> conv1 (in-place)
I0514 23:15:28.343561 25168 net.cpp:96] Setting up relu1
I0514 23:15:28.343571 25168 net.cpp:103] Top shape: 10 80 198 198 (31363200)
I0514 23:15:28.343587 25168 net.cpp:67] Creating Layer norm1
I0514 23:15:28.343595 25168 net.cpp:394] norm1 <- conv1
I0514 23:15:28.343602 25168 net.cpp:356] norm1 -> norm1
I0514 23:15:28.343613 25168 net.cpp:96] Setting up norm1
I0514 23:15:28.343626 25168 net.cpp:103] Top shape: 10 80 198 198 (31363200)
I0514 23:15:28.343639 25168 net.cpp:67] Creating Layer pool1
I0514 23:15:28.343647 25168 net.cpp:394] pool1 <- norm1
I0514 23:15:28.343655 25168 net.cpp:356] pool1 -> pool1
I0514 23:15:28.343664 25168 net.cpp:96] Setting up pool1
I0514 23:15:28.343679 25168 net.cpp:103] Top shape: 10 80 99 99 (7840800)
I0514 23:15:28.343689 25168 net.cpp:67] Creating Layer conv2
I0514 23:15:28.343696 25168 net.cpp:394] conv2 <- pool1
I0514 23:15:28.343710 25168 net.cpp:356] conv2 -> conv2
I0514 23:15:28.343721 25168 net.cpp:96] Setting up conv2
I0514 23:15:28.344390 25168 net.cpp:103] Top shape: 10 120 96 96 (11059200)
I0514 23:15:28.344416 25168 net.cpp:67] Creating Layer relu2
I0514 23:15:28.344425 25168 net.cpp:394] relu2 <- conv2
I0514 23:15:28.344434 25168 net.cpp:345] relu2 -> conv2 (in-place)
I0514 23:15:28.344442 25168 net.cpp:96] Setting up relu2
I0514 23:15:28.344449 25168 net.cpp:103] Top shape: 10 120 96 96 (11059200)
I0514 23:15:28.344457 25168 net.cpp:67] Creating Layer norm2
I0514 23:15:28.344465 25168 net.cpp:394] norm2 <- conv2
I0514 23:15:28.344478 25168 net.cpp:356] norm2 -> norm2
I0514 23:15:28.344488 25168 net.cpp:96] Setting up norm2
I0514 23:15:28.344496 25168 net.cpp:103] Top shape: 10 120 96 96 (11059200)
I0514 23:15:28.344508 25168 net.cpp:67] Creating Layer pool2
I0514 23:15:28.344516 25168 net.cpp:394] pool2 <- norm2
I0514 23:15:28.344523 25168 net.cpp:356] pool2 -> pool2
I0514 23:15:28.344532 25168 net.cpp:96] Setting up pool2
I0514 23:15:28.344540 25168 net.cpp:103] Top shape: 10 120 48 48 (2764800)
I0514 23:15:28.344550 25168 net.cpp:67] Creating Layer conv3
I0514 23:15:28.344558 25168 net.cpp:394] conv3 <- pool2
I0514 23:15:28.344571 25168 net.cpp:356] conv3 -> conv3
I0514 23:15:28.344581 25168 net.cpp:96] Setting up conv3
I0514 23:15:28.345283 25168 net.cpp:103] Top shape: 10 160 46 46 (3385600)
I0514 23:15:28.345305 25168 net.cpp:67] Creating Layer relu3
I0514 23:15:28.345314 25168 net.cpp:394] relu3 <- conv3
I0514 23:15:28.345321 25168 net.cpp:345] relu3 -> conv3 (in-place)
I0514 23:15:28.345330 25168 net.cpp:96] Setting up relu3
I0514 23:15:28.345337 25168 net.cpp:103] Top shape: 10 160 46 46 (3385600)
I0514 23:15:28.345345 25168 net.cpp:67] Creating Layer conv4
I0514 23:15:28.345352 25168 net.cpp:394] conv4 <- conv3
I0514 23:15:28.345362 25168 net.cpp:356] conv4 -> conv4
I0514 23:15:28.345372 25168 net.cpp:96] Setting up conv4
I0514 23:15:28.346535 25168 net.cpp:103] Top shape: 10 200 44 44 (3872000)
I0514 23:15:28.346560 25168 net.cpp:67] Creating Layer relu4
I0514 23:15:28.346575 25168 net.cpp:394] relu4 <- conv4
I0514 23:15:28.346585 25168 net.cpp:345] relu4 -> conv4 (in-place)
I0514 23:15:28.346595 25168 net.cpp:96] Setting up relu4
I0514 23:15:28.346601 25168 net.cpp:103] Top shape: 10 200 44 44 (3872000)
I0514 23:15:28.346611 25168 net.cpp:67] Creating Layer pool4
I0514 23:15:28.346616 25168 net.cpp:394] pool4 <- conv4
I0514 23:15:28.346632 25168 net.cpp:356] pool4 -> pool4
I0514 23:15:28.346642 25168 net.cpp:96] Setting up pool4
I0514 23:15:28.346650 25168 net.cpp:103] Top shape: 10 200 22 22 (968000)
I0514 23:15:28.346658 25168 net.cpp:67] Creating Layer conv5
I0514 23:15:28.346665 25168 net.cpp:394] conv5 <- pool4
I0514 23:15:28.346679 25168 net.cpp:356] conv5 -> conv5
I0514 23:15:28.346689 25168 net.cpp:96] Setting up conv5
I0514 23:15:28.347838 25168 net.cpp:103] Top shape: 10 160 20 20 (640000)
I0514 23:15:28.347865 25168 net.cpp:67] Creating Layer relu5
I0514 23:15:28.347874 25168 net.cpp:394] relu5 <- conv5
I0514 23:15:28.347882 25168 net.cpp:345] relu5 -> conv5 (in-place)
I0514 23:15:28.347892 25168 net.cpp:96] Setting up relu5
I0514 23:15:28.347898 25168 net.cpp:103] Top shape: 10 160 20 20 (640000)
I0514 23:15:28.347906 25168 net.cpp:67] Creating Layer conv6
I0514 23:15:28.347913 25168 net.cpp:394] conv6 <- conv5
I0514 23:15:28.347921 25168 net.cpp:356] conv6 -> conv6
I0514 23:15:28.347930 25168 net.cpp:96] Setting up conv6
I0514 23:15:28.349061 25168 net.cpp:103] Top shape: 10 200 18 18 (648000)
I0514 23:15:28.349081 25168 net.cpp:67] Creating Layer relu6
I0514 23:15:28.349088 25168 net.cpp:394] relu6 <- conv6
I0514 23:15:28.349097 25168 net.cpp:345] relu6 -> conv6 (in-place)
I0514 23:15:28.349107 25168 net.cpp:96] Setting up relu6
I0514 23:15:28.349113 25168 net.cpp:103] Top shape: 10 200 18 18 (648000)
I0514 23:15:28.349122 25168 net.cpp:67] Creating Layer pool6
I0514 23:15:28.349128 25168 net.cpp:394] pool6 <- conv6
I0514 23:15:28.349136 25168 net.cpp:356] pool6 -> pool6
I0514 23:15:28.349145 25168 net.cpp:96] Setting up pool6
I0514 23:15:28.349153 25168 net.cpp:103] Top shape: 10 200 9 9 (162000)
I0514 23:15:28.349164 25168 net.cpp:67] Creating Layer conv7
I0514 23:15:28.349169 25168 net.cpp:394] conv7 <- pool6
I0514 23:15:28.349179 25168 net.cpp:356] conv7 -> conv7
I0514 23:15:28.349187 25168 net.cpp:96] Setting up conv7
I0514 23:15:28.350008 25168 net.cpp:103] Top shape: 10 120 7 7 (58800)
I0514 23:15:28.350026 25168 net.cpp:67] Creating Layer relu7
I0514 23:15:28.350034 25168 net.cpp:394] relu7 <- conv7
I0514 23:15:28.350044 25168 net.cpp:345] relu7 -> conv7 (in-place)
I0514 23:15:28.350051 25168 net.cpp:96] Setting up relu7
I0514 23:15:28.350059 25168 net.cpp:103] Top shape: 10 120 7 7 (58800)
I0514 23:15:28.350067 25168 net.cpp:67] Creating Layer norm7
I0514 23:15:28.350075 25168 net.cpp:394] norm7 <- conv7
I0514 23:15:28.350083 25168 net.cpp:356] norm7 -> norm7
I0514 23:15:28.350092 25168 net.cpp:96] Setting up norm7
I0514 23:15:28.350100 25168 net.cpp:103] Top shape: 10 120 7 7 (58800)
I0514 23:15:28.350108 25168 net.cpp:67] Creating Layer pool7
I0514 23:15:28.350116 25168 net.cpp:394] pool7 <- norm7
I0514 23:15:28.350124 25168 net.cpp:356] pool7 -> pool7
I0514 23:15:28.350133 25168 net.cpp:96] Setting up pool7
I0514 23:15:28.350141 25168 net.cpp:103] Top shape: 10 120 3 3 (10800)
I0514 23:15:28.350150 25168 net.cpp:67] Creating Layer ip1
I0514 23:15:28.350157 25168 net.cpp:394] ip1 <- pool7
I0514 23:15:28.350170 25168 net.cpp:356] ip1 -> ip1
I0514 23:15:28.350183 25168 net.cpp:96] Setting up ip1
I0514 23:15:28.351486 25168 net.cpp:103] Top shape: 10 320 1 1 (3200)
I0514 23:15:28.351505 25168 net.cpp:67] Creating Layer relu_ip1
I0514 23:15:28.351513 25168 net.cpp:394] relu_ip1 <- ip1
I0514 23:15:28.351521 25168 net.cpp:345] relu_ip1 -> ip1 (in-place)
I0514 23:15:28.351531 25168 net.cpp:96] Setting up relu_ip1
I0514 23:15:28.351536 25168 net.cpp:103] Top shape: 10 320 1 1 (3200)
I0514 23:15:28.351546 25168 net.cpp:67] Creating Layer drop1
I0514 23:15:28.351552 25168 net.cpp:394] drop1 <- ip1
I0514 23:15:28.351564 25168 net.cpp:345] drop1 -> ip1 (in-place)
I0514 23:15:28.351582 25168 net.cpp:96] Setting up drop1
I0514 23:15:28.351594 25168 net.cpp:103] Top shape: 10 320 1 1 (3200)
I0514 23:15:28.351603 25168 net.cpp:67] Creating Layer ip2
I0514 23:15:28.351610 25168 net.cpp:394] ip2 <- ip1
I0514 23:15:28.351622 25168 net.cpp:356] ip2 -> ip2
I0514 23:15:28.351631 25168 net.cpp:96] Setting up ip2
I0514 23:15:28.351929 25168 net.cpp:103] Top shape: 10 320 1 1 (3200)
I0514 23:15:28.351956 25168 net.cpp:67] Creating Layer relu_ip2
I0514 23:15:28.351964 25168 net.cpp:394] relu_ip2 <- ip2
I0514 23:15:28.351975 25168 net.cpp:345] relu_ip2 -> ip2 (in-place)
I0514 23:15:28.351984 25168 net.cpp:96] Setting up relu_ip2
I0514 23:15:28.351991 25168 net.cpp:103] Top shape: 10 320 1 1 (3200)
I0514 23:15:28.351999 25168 net.cpp:67] Creating Layer drop2
I0514 23:15:28.352006 25168 net.cpp:394] drop2 <- ip2
I0514 23:15:28.352015 25168 net.cpp:345] drop2 -> ip2 (in-place)
I0514 23:15:28.352022 25168 net.cpp:96] Setting up drop2
I0514 23:15:28.352030 25168 net.cpp:103] Top shape: 10 320 1 1 (3200)
I0514 23:15:28.352038 25168 net.cpp:67] Creating Layer ip3
I0514 23:15:28.352046 25168 net.cpp:394] ip3 <- ip2
I0514 23:15:28.352057 25168 net.cpp:356] ip3 -> ip3
I0514 23:15:28.352067 25168 net.cpp:96] Setting up ip3
I0514 23:15:28.352082 25168 net.cpp:103] Top shape: 10 2 1 1 (20)
I0514 23:15:28.352097 25168 net.cpp:67] Creating Layer prob
I0514 23:15:28.352104 25168 net.cpp:394] prob <- ip3
I0514 23:15:28.352113 25168 net.cpp:356] prob -> prob
I0514 23:15:28.352121 25168 net.cpp:96] Setting up prob
I0514 23:15:28.352133 25168 net.cpp:103] Top shape: 10 2 1 1 (20)
I0514 23:15:28.352139 25168 net.cpp:172] prob does not need backward computation.
I0514 23:15:28.352145 25168 net.cpp:172] ip3 does not need backward computation.
I0514 23:15:28.352151 25168 net.cpp:172] drop2 does not need backward computation.
I0514 23:15:28.352157 25168 net.cpp:172] relu_ip2 does not need backward computation.
I0514 23:15:28.352164 25168 net.cpp:172] ip2 does not need backward computation.
…
